…
=========================================================================================================================================================================================
Layer (type:depth-idx)                                       Input Shape               Output Shape              Kernel Shape              Param #                   Mult-Adds
=========================================================================================================================================================================================
├─MeanShift: 1-1                                             [-1, 3, 48, 48]           [-1, 3, 48, 48]           [3, 3, 1, 1]              12                        9
├─Sequential: 1-2                                            [-1, 3, 48, 48]           [-1, 64, 48, 48]          --                        --                        --
|    └─Conv2d: 2-1                                           [-1, 3, 48, 48]           [-1, 64, 48, 48]          [3, 64, 3, 3]             1,792                     3,981,312
├─Sequential: 1                                              []                        []                        --                        --                        --
|    └─ResidualGroup: 2-2                                    [-1, 64, 48, 48]          [-1, 64, 48, 48]          --                        --                        --
|    |    └─Sequential: 3-1                                  [-1, 64, 48, 48]          [-1, 64, 48, 48]          --                        --                        --
|    |    |    └─RCAB: 4-1                                   [-1, 64, 48, 48]          [-1, 64, 48, 48]          --                        --                        --
|    |    |    |    └─Sequential: 5-1                        [-1, 64, 48, 48]          [-1, 64, 48, 48]          --                        --                        --
|    |    |    |    |    └─Conv2d: 6-1                       [-1, 64, 48, 48]          [-1, 64, 48, 48]          [64, 64, 3, 3]            36,928                    84,934,656
|    |    |    |    |    └─ReLU: 6-2                         [-1, 64, 48, 48]          [-1, 64, 48, 48]          --                        --                        --
|    |    |    |    |    └─Conv2d: 6-3                       [-1, 64, 48, 48]          [-1, 64, 48, 48]          [64, 64, 3, 3]            36,928                    84,934,656
|    |    |    |    |    └─CALayer: 6-4                      [-1, 64, 48, 48]          [-1, 64, 48, 48]          --                        --                        --
|    |    |    |    |    |    └─AdaptiveAvgPool2d: 7-1       [-1, 64, 48, 48]          [-1, 64, 1, 1]            --                        --                        --
|    |    |    |    |    |    └─Sequential: 7-2              [-1, 64, 1, 1]            [-1, 64, 1, 1]            --                        --                        --
|    |    |    |    |    |    |    └─Conv2d: 8-1             [-1, 64, 1, 1]            [-1, 4, 1, 1]             [64, 4, 1, 1]             260                       256
|    |    |    |    |    |    |    └─ReLU: 8-2               [-1, 4, 1, 1]             [-1, 4, 1, 1]             --                        --                        --
|    |    |    |    |    |    |    └─Conv2d: 8-3             [-1, 4, 1, 1]             [-1, 64, 1, 1]            [4, 64, 1, 1]             320                       256
|    |    |    |    |    |    |    └─Sigmoid: 8-4            [-1, 64, 1, 1]            [-1, 64, 1, 1]            --                        --                        --
|    |    |    └─RCAB: 4-2                                   [-1, 64, 48, 48]          [-1, 64, 48, 48]          --                        --                        --
|    |    |    |    └─Sequential: 5-2                        [-1, 64, 48, 48]          [-1, 64, 48, 48]          --                        --                        --
|    |    |    |    |    └─Conv2d: 6-5                       [-1, 64, 48, 48]          [-1, 64, 48, 48]          [64, 64, 3, 3]            36,928                    84,934,656
|    |    |    |    |    └─ReLU: 6-6                         [-1, 64, 48, 48]          [-1, 64, 48, 48]          --                        --                        --
|    |    |    |    |    └─Conv2d: 6-7                       [-1, 64, 48, 48]          [-1, 64, 48, 48]          [64, 64, 3, 3]            36,928                    84,934,656
|    |    |    |    |    └─CALayer: 6-8                      [-1, 64, 48, 48]          [-1, 64, 48, 48]          --                        --                        --
|    |    |    |    |    |    └─AdaptiveAvgPool2d: 7-3       [-1, 64, 48, 48]          [-1, 64, 1, 1]            --                        --                        --
|    |    |    |    |    |    └─Sequential: 7-4              [-1, 64, 1, 1]            [-1, 64, 1, 1]            --                        --                        --
|    |    |    |    |    |    |    └─Conv2d: 8-5             [-1, 64, 1, 1]            [-1, 4, 1, 1]             [64, 4, 1, 1]             260                       256
|    |    |    |    |    |    |    └─ReLU: 8-6               [-1, 4, 1, 1]             [-1, 4, 1, 1]             --                        --                        --
|    |    |    |    |    |    |    └─Conv2d: 8-7             [-1, 4, 1, 1]             [-1, 64, 1, 1]            [4, 64, 1, 1]             320                       256
|    |    |    |    |    |    |    └─Sigmoid: 8-8            [-1, 64, 1, 1]            [-1, 64, 1, 1]            --                        --                        --
|    |    |    └─RCAB: 4-3                                   [-1, 64, 48, 48]          [-1, 64, 48, 48]          --                        --                        --
|    |    |    |    └─Sequential: 5-3                        [-1, 64, 48, 48]          [-1, 64, 48, 48]          --                        --                        --
|    |    |    |    |    └─Conv2d: 6-9                       [-1, 64, 48, 48]          [-1, 64, 48, 48]          [64, 64, 3, 3]            36,928                    84,934,656
|    |    |    |    |    └─ReLU: 6-10                        [-1, 64, 48, 48]          [-1, 64, 48, 48]          --                        --                        --
|    |    |    |    |    └─Conv2d: 6-11                      [-1, 64, 48, 48]          [-1, 64, 48, 48]          [64, 64, 3, 3]            36,928                    84,934,656
|    |    |    |    |    └─CALayer: 6-12                     [-1, 64, 48, 48]          [-1, 64, 48, 48]          --                        --                        --
|    |    |    |    |    |    └─AdaptiveAvgPool2d: 7-5       [-1, 64, 48, 48]          [-1, 64, 1, 1]            --                        --                        --
|    |    |    |    |    |    └─Sequential: 7-6              [-1, 64, 1, 1]            [-1, 64, 1, 1]            --                        --                        --
|    |    |    |    |    |    |    └─Conv2d: 8-9             [-1, 64, 1, 1]            [-1, 4, 1, 1]             [64, 4, 1, 1]             260                       256
|    |    |    |    |    |    |    └─ReLU: 8-10              [-1, 4, 1, 1]             [-1, 4, 1, 1]             --                        --                        --
|    |    |    |    |    |    |    └─Conv2d: 8-11            [-1, 4, 1, 1]             [-1, 64, 1, 1]            [4, 64, 1, 1]             320                       256
|    |    |    |    |    |    |    └─Sigmoid: 8-12           [-1, 64, 1, 1]            [-1, 64, 1, 1]            --                        --                        --
|    |    |    └─RCAB: 4-4                                   [-1, 64, 48, 48]          [-1, 64, 48, 48]          --                        --                        --
|    |    |    |    └─Sequential: 5-4                        [-1, 64, 48, 48]          [-1, 64, 48, 48]          --                        --                        --
|    |    |    |    |    └─Conv2d: 6-13                      [-1, 64, 48, 48]          [-1, 64, 48, 48]          [64, 64, 3, 3]            36,928                    84,934,656
|    |    |    |    |    └─ReLU: 6-14                        [-1, 64, 48, 48]          [-1, 64, 48, 48]          --                        --                        --
|    |    |    |    |    └─Conv2d: 6-15                      [-1, 64, 48, 48]          [-1, 64, 48, 48]          [64, 64, 3, 3]            36,928                    84,934,656
|    |    |    |    |    └─CALayer: 6-16                     [-1, 64, 48, 48]          [-1, 64, 48, 48]          --                        --                        --
|    |    |    |    |    |    └─AdaptiveAvgPool2d: 7-7       [-1, 64, 48, 48]          [-1, 64, 1, 1]            --                        --                        --
|    |    |    |    |    |    └─Sequential: 7-8              [-1, 64, 1, 1]            [-1, 64, 1, 1]            --                        --                        --
|    |    |    |    |    |    |    └─Conv2d: 8-13            [-1, 64, 1, 1]            [-1, 4, 1, 1]             [64, 4, 1, 1]             260                       256
|    |    |    |    |    |    |    └─ReLU: 8-14              [-1, 4, 1, 1]             [-1, 4, 1, 1]             --                        --                        --
|    |    |    |    |    |    |    └─Conv2d: 8-15            [-1, 4, 1, 1]             [-1, 64, 1, 1]            [4, 64, 1, 1]             320                       256
|    |    |    |    |    |    |    └─Sigmoid: 8-16           [-1, 64, 1, 1]            [-1, 64, 1, 1]            --                        --                        --
|    |    |    └─RCAB: 4-5                                   [-1, 64, 48, 48]          [-1, 64, 48, 48]          --                        --                        --
|    |    |    |    └─Sequential: 5-5                        [-1, 64, 48, 48]          [-1, 64, 48, 48]          --                        --                        --
|    |    |    |    |    └─Conv2d: 6-17                      [-1, 64, 48, 48]          [-1, 64, 48, 48]          [64, 64, 3, 3]            36,928                    84,934,656
|    |    |    |    |    └─ReLU: 6-18                        [-1, 64, 48, 48]          [-1, 64, 48, 48]          --                        --                        --
|    |    |    |    |    └─Conv2d: 6-19                      [-1, 64, 48, 48]          [-1, 64, 48, 48]          [64, 64, 3, 3]            36,928                    84,934,656
|    |    |    |    |    └─CALayer: 6-20                     [-1, 64, 48, 48]          [-1, 64, 48, 48]          --                        --                        --
|    |    |    |    |    |    └─AdaptiveAvgPool2d: 7-9       [-1, 64, 48, 48]          [-1, 64, 1, 1]            --                        --                        --
|    |    |    |    |    |    └─Sequential: 7-10             [-1, 64, 1, 1]            [-1, 64, 1, 1]            --                        --                        --
|    |    |    |    |    |    |    └─Conv2d: 8-17            [-1, 64, 1, 1]            [-1, 4, 1, 1]             [64, 4, 1, 1]             260                       256
|    |    |    |    |    |    |    └─ReLU: 8-18              [-1, 4, 1, 1]             [-1, 4, 1, 1]             --                        --                        --
|    |    |    |    |    |    |    └─Conv2d: 8-19            [-1, 4, 1, 1]             [-1, 64, 1, 1]            [4, 64, 1, 1]             320                       256
|    |    |    |    |    |    |    └─Sigmoid: 8-20           [-1, 64, 1, 1]            [-1, 64, 1, 1]            --                        --                        --
|    |    |    └─RCAB: 4-6                                   [-1, 64, 48, 48]          [-1, 64, 48, 48]          --                        --                        --
|    |    |    |    └─Sequential: 5-6                        [-1, 64, 48, 48]          [-1, 64, 48, 48]          --                        --                        --
|    |    |    |    |    └─Conv2d: 6-21                      [-1, 64, 48, 48]          [-1, 64, 48, 48]          [64, 64, 3, 3]            36,928                    84,934,656
|    |    |    |    |    └─ReLU: 6-22                        [-1, 64, 48, 48]          [-1, 64, 48, 48]          --                        --                        --
|    |    |    |    |    └─Conv2d: 6-23                      [-1, 64, 48, 48]          [-1, 64, 48, 48]          [64, 64, 3, 3]            36,928                    84,934,656
|    |    |    |    |    └─CALayer: 6-24                     [-1, 64, 48, 48]          [-1, 64, 48, 48]          --                        --                        --
|    |    |    |    |    |    └─AdaptiveAvgPool2d: 7-11      [-1, 64, 48, 48]          [-1, 64, 1, 1]            --                        --                        --
|    |    |    |    |    |    └─Sequential: 7-12             [-1, 64, 1, 1]            [-1, 64, 1, 1]            --                        --                        --
|    |    |    |    |    |    |    └─Conv2d: 8-21            [-1, 64, 1, 1]            [-1, 4, 1, 1]             [64, 4, 1, 1]             260                       256
|    |    |    |    |    |    |    └─ReLU: 8-22              [-1, 4, 1, 1]             [-1, 4, 1, 1]             --                        --                        --
|    |    |    |    |    |    |    └─Conv2d: 8-23            [-1, 4, 1, 1]             [-1, 64, 1, 1]            [4, 64, 1, 1]             320                       256
|    |    |    |    |    |    |    └─Sigmoid: 8-24           [-1, 64, 1, 1]            [-1, 64, 1, 1]            --                        --                        --
|    |    |    └─RCAB: 4-7                                   [-1, 64, 48, 48]          [-1, 64, 48, 48]          --                        --                        --
|    |    |    |    └─Sequential: 5-7                        [-1, 64, 48, 48]          [-1, 64, 48, 48]          --                        --                        --
|    |    |    |    |    └─Conv2d: 6-25                      [-1, 64, 48, 48]          [-1, 64, 48, 48]          [64, 64, 3, 3]            36,928                    84,934,656
|    |    |    |    |    └─ReLU: 6-26                        [-1, 64, 48, 48]          [-1, 64, 48, 48]          --                        --                        --
|    |    |    |    |    └─Conv2d: 6-27                      [-1, 64, 48, 48]          [-1, 64, 48, 48]          [64, 64, 3, 3]            36,928                    84,934,656
|    |    |    |    |    └─CALayer: 6-28                     [-1, 64, 48, 48]          [-1, 64, 48, 48]          --                        --                        --
|    |    |    |    |    |    └─AdaptiveAvgPool2d: 7-13      [-1, 64, 48, 48]          [-1, 64, 1, 1]            --                        --                        --
|    |    |    |    |    |    └─Sequential: 7-14             [-1, 64, 1, 1]            [-1, 64, 1, 1]            --                        --                        --
|    |    |    |    |    |    |    └─Conv2d: 8-25            [-1, 64, 1, 1]            [-1, 4, 1, 1]             [64, 4, 1, 1]             260                       256
|    |    |    |    |    |    |    └─ReLU: 8-26              [-1, 4, 1, 1]             [-1, 4, 1, 1]             --                        --                        --
|    |    |    |    |    |    |    └─Conv2d: 8-27            [-1, 4, 1, 1]             [-1, 64, 1, 1]            [4, 64, 1, 1]             320                       256
|    |    |    |    |    |    |    └─Sigmoid: 8-28           [-1, 64, 1, 1]            [-1, 64, 1, 1]            --                        --                        --
|    |    |    └─RCAB: 4-8                                   [-1, 64, 48, 48]          [-1, 64, 48, 48]          --                        --                        --
|    |    |    |    └─Sequential: 5-8                        [-1, 64, 48, 48]          [-1, 64, 48, 48]          --                        --                        --
|    |    |    |    |    └─Conv2d: 6-29                      [-1, 64, 48, 48]          [-1, 64, 48, 48]          [64, 64, 3, 3]            36,928                    84,934,656
|    |    |    |    |    └─ReLU: 6-30                        [-1, 64, 48, 48]          [-1, 64, 48, 48]          --                        --                        --
|    |    |    |    |    └─Conv2d: 6-31                      [-1, 64, 48, 48]          [-1, 64, 48, 48]          [64, 64, 3, 3]            36,928                    84,934,656
|    |    |    |    |    └─CALayer: 6-32                     [-1, 64, 48, 48]          [-1, 64, 48, 48]          --                        --                        --
|    |    |    |    |    |    └─AdaptiveAvgPool2d: 7-15      [-1, 64, 48, 48]          [-1, 64, 1, 1]            --                        --                        --
|    |    |    |    |    |    └─Sequential: 7-16             [-1, 64, 1, 1]            [-1, 64, 1, 1]            --                        --                        --
|    |    |    |    |    |    |    └─Conv2d: 8-29            [-1, 64, 1, 1]            [-1, 4, 1, 1]             [64, 4, 1, 1]             260                       256
|    |    |    |    |    |    |    └─ReLU: 8-30              [-1, 4, 1, 1]             [-1, 4, 1, 1]             --                        --                        --
|    |    |    |    |    |    |    └─Conv2d: 8-31            [-1, 4, 1, 1]             [-1, 64, 1, 1]            [4, 64, 1, 1]             320                       256
|    |    |    |    |    |    |    └─Sigmoid: 8-32           [-1, 64, 1, 1]            [-1, 64, 1, 1]            --                        --                        --
|    |    |    └─RCAB: 4-9                                   [-1, 64, 48, 48]          [-1, 64, 48, 48]          --                        --                        --
|    |    |    |    └─Sequential: 5-9                        [-1, 64, 48, 48]          [-1, 64, 48, 48]          --                        --                        --
|    |    |    |    |    └─Conv2d: 6-33                      [-1, 64, 48, 48]          [-1, 64, 48, 48]          [64, 64, 3, 3]            36,928                    84,934,656
|    |    |    |    |    └─ReLU: 6-34                        [-1, 64, 48, 48]          [-1, 64, 48, 48]          --                        --                        --
|    |    |    |    |    └─Conv2d: 6-35                      [-1, 64, 48, 48]          [-1, 64, 48, 48]          [64, 64, 3, 3]            36,928                    84,934,656
|    |    |    |    |    └─CALayer: 6-36                     [-1, 64, 48, 48]          [-1, 64, 48, 48]          --                        --                        --
|    |    |    |    |    |    └─AdaptiveAvgPool2d: 7-17      [-1, 64, 48, 48]          [-1, 64, 1, 1]            --                        --                        --
|    |    |    |    |    |    └─Sequential: 7-18             [-1, 64, 1, 1]            [-1, 64, 1, 1]            --                        --                        --
|    |    |    |    |    |    |    └─Conv2d: 8-33            [-1, 64, 1, 1]            [-1, 4, 1, 1]             [64, 4, 1, 1]             260                       256
|    |    |    |    |    |    |    └─ReLU: 8-34              [-1, 4, 1, 1]             [-1, 4, 1, 1]             --                        --                        --
|    |    |    |    |    |    |    └─Conv2d: 8-35            [-1, 4, 1, 1]             [-1, 64, 1, 1]            [4, 64, 1, 1]             320                       256
|    |    |    |    |    |    |    └─Sigmoid: 8-36           [-1, 64, 1, 1]            [-1, 64, 1, 1]            --                        --                        --
|    |    |    └─RCAB: 4-10                                  [-1, 64, 48, 48]          [-1, 64, 48, 48]          --                        --                        --
|    |    |    |    └─Sequential: 5-10                       [-1, 64, 48, 48]          [-1, 64, 48, 48]          --                        --                        --
|    |    |    |    |    └─Conv2d: 6-37                      [-1, 64, 48, 48]          [-1, 64, 48, 48]          [64, 64, 3, 3]            36,928                    84,934,656
|    |    |    |    |    └─ReLU: 6-38                        [-1, 64, 48, 48]          [-1, 64, 48, 48]          --                        --                        --
|    |    |    |    |    └─Conv2d: 6-39                      [-1, 64, 48, 48]          [-1, 64, 48, 48]          [64, 64, 3, 3]            36,928                    84,934,656
|    |    |    |    |    └─CALayer: 6-40                     [-1, 64, 48, 48]          [-1, 64, 48, 48]          --                        --                        --
|    |    |    |    |    |    └─AdaptiveAvgPool2d: 7-19      [-1, 64, 48, 48]          [-1, 64, 1, 1]            --                        --                        --
|    |    |    |    |    |    └─Sequential: 7-20             [-1, 64, 1, 1]            [-1, 64, 1, 1]            --                        --                        --
|    |    |    |    |    |    |    └─Conv2d: 8-37            [-1, 64, 1, 1]            [-1, 4, 1, 1]             [64, 4, 1, 1]             260                       256
|    |    |    |    |    |    |    └─ReLU: 8-38              [-1, 4, 1, 1]             [-1, 4, 1, 1]             --                        --                        --
|    |    |    |    |    |    |    └─Conv2d: 8-39            [-1, 4, 1, 1]             [-1, 64, 1, 1]            [4, 64, 1, 1]             320                       256
|    |    |    |    |    |    |    └─Sigmoid: 8-40           [-1, 64, 1, 1]            [-1, 64, 1, 1]            --                        --                        --
|    |    |    └─RCAB: 4-11                                  [-1, 64, 48, 48]          [-1, 64, 48, 48]          --                        --                        --
|    |    |    |    └─Sequential: 5-11                       [-1, 64, 48, 48]          [-1, 64, 48, 48]          --                        --                        --
|    |    |    |    |    └─Conv2d: 6-41                      [-1, 64, 48, 48]          [-1, 64, 48, 48]          [64, 64, 3, 3]            36,928                    84,934,656
|    |    |    |    |    └─ReLU: 6-42                        [-1, 64, 48, 48]          [-1, 64, 48, 48]          --                        --                        --
|    |    |    |    |    └─Conv2d: 6-43                      [-1, 64, 48, 48]          [-1, 64, 48, 48]          [64, 64, 3, 3]            36,928                    84,934,656
|    |    |    |    |    └─CALayer: 6-44                     [-1, 64, 48, 48]          [-1, 64, 48, 48]          --                        --                        --
|    |    |    |    |    |    └─AdaptiveAvgPool2d: 7-21      [-1, 64, 48, 48]          [-1, 64, 1, 1]            --                        --                        --
|    |    |    |    |    |    └─Sequential: 7-22             [-1, 64, 1, 1]            [-1, 64, 1, 1]            --                        --                        --
|    |    |    |    |    |    |    └─Conv2d: 8-41            [-1, 64, 1, 1]            [-1, 4, 1, 1]             [64, 4, 1, 1]             260                       256
|    |    |    |    |    |    |    └─ReLU: 8-42              [-1, 4, 1, 1]             [-1, 4, 1, 1]             --                        --                        --
|    |    |    |    |    |    |    └─Conv2d: 8-43            [-1, 4, 1, 1]             [-1, 64, 1, 1]            [4, 64, 1, 1]             320                       256
|    |    |    |    |    |    |    └─Sigmoid: 8-44           [-1, 64, 1, 1]            [-1, 64, 1, 1]            --                        --                        --
|    |    |    └─RCAB: 4-12                                  [-1, 64, 48, 48]          [-1, 64, 48, 48]          --                        --                        --
|    |    |    |    └─Sequential: 5-12                       [-1, 64, 48, 48]          [-1, 64, 48, 48]          --                        --                        --
|    |    |    |    |    └─Conv2d: 6-45                      [-1, 64, 48, 48]          [-1, 64, 48, 48]          [64, 64, 3, 3]            36,928                    84,934,656
|    |    |    |    |    └─ReLU: 6-46                        [-1, 64, 48, 48]          [-1, 64, 48, 48]          --                        --                        --
|    |    |    |    |    └─Conv2d: 6-47                      [-1, 64, 48, 48]          [-1, 64, 48, 48]          [64, 64, 3, 3]            36,928                    84,934,656
|    |    |    |    |    └─CALayer: 6-48                     [-1, 64, 48, 48]          [-1, 64, 48, 48]          --                        --                        --
|    |    |    |    |    |    └─AdaptiveAvgPool2d: 7-23      [-1, 64, 48, 48]          [-1, 64, 1, 1]            --                        --                        --
|    |    |    |    |    |    └─Sequential: 7-24             [-1, 64, 1, 1]            [-1, 64, 1, 1]            --                        --                        --
|    |    |    |    |    |    |    └─Conv2d: 8-45            [-1, 64, 1, 1]            [-1, 4, 1, 1]             [64, 4, 1, 1]             260                       256
|    |    |    |    |    |    |    └─ReLU: 8-46              [-1, 4, 1, 1]             [-1, 4, 1, 1]             --                        --                        --
|    |    |    |    |    |    |    └─Conv2d: 8-47            [-1, 4, 1, 1]             [-1, 64, 1, 1]            [4, 64, 1, 1]             320                       256
|    |    |    |    |    |    |    └─Sigmoid: 8-48           [-1, 64, 1, 1]            [-1, 64, 1, 1]            --                        --                        --
|    |    |    └─RCAB: 4-13                                  [-1, 64, 48, 48]          [-1, 64, 48, 48]          --                        --                        --
|    |    |    |    └─Sequential: 5-13                       [-1, 64, 48, 48]          [-1, 64, 48, 48]          --                        --                        --
|    |    |    |    |    └─Conv2d: 6-49                      [-1, 64, 48, 48]          [-1, 64, 48, 48]          [64, 64, 3, 3]            36,928                    84,934,656
|    |    |    |    |    └─ReLU: 6-50                        [-1, 64, 48, 48]          [-1, 64, 48, 48]          --                        --                        --
|    |    |    |    |    └─Conv2d: 6-51                      [-1, 64, 48, 48]          [-1, 64, 48, 48]          [64, 64, 3, 3]            36,928                    84,934,656
|    |    |    |    |    └─CALayer: 6-52                     [-1, 64, 48, 48]          [-1, 64, 48, 48]          --                        --                        --
|    |    |    |    |    |    └─AdaptiveAvgPool2d: 7-25      [-1, 64, 48, 48]          [-1, 64, 1, 1]            --                        --                        --
|    |    |    |    |    |    └─Sequential: 7-26             [-1, 64, 1, 1]            [-1, 64, 1, 1]            --                        --                        --
|    |    |    |    |    |    |    └─Conv2d: 8-49            [-1, 64, 1, 1]            [-1, 4, 1, 1]             [64, 4, 1, 1]             260                       256
|    |    |    |    |    |    |    └─ReLU: 8-50              [-1, 4, 1, 1]             [-1, 4, 1, 1]             --                        --                        --
|    |    |    |    |    |    |    └─Conv2d: 8-51            [-1, 4, 1, 1]             [-1, 64, 1, 1]            [4, 64, 1, 1]             320                       256
|    |    |    |    |    |    |    └─Sigmoid: 8-52           [-1, 64, 1, 1]            [-1, 64, 1, 1]            --                        --                        --
|    |    |    └─RCAB: 4-14                                  [-1, 64, 48, 48]          [-1, 64, 48, 48]          --                        --                        --
|    |    |    |    └─Sequential: 5-14                       [-1, 64, 48, 48]          [-1, 64, 48, 48]          --                        --                        --
|    |    |    |    |    └─Conv2d: 6-53                      [-1, 64, 48, 48]          [-1, 64, 48, 48]          [64, 64, 3, 3]            36,928                    84,934,656
|    |    |    |    |    └─ReLU: 6-54                        [-1, 64, 48, 48]          [-1, 64, 48, 48]          --                        --                        --
|    |    |    |    |    └─Conv2d: 6-55                      [-1, 64, 48, 48]          [-1, 64, 48, 48]          [64, 64, 3, 3]            36,928                    84,934,656
|    |    |    |    |    └─CALayer: 6-56                     [-1, 64, 48, 48]          [-1, 64, 48, 48]          --                        --                        --
|    |    |    |    |    |    └─AdaptiveAvgPool2d: 7-27      [-1, 64, 48, 48]          [-1, 64, 1, 1]            --                        --                        --
|    |    |    |    |    |    └─Sequential: 7-28             [-1, 64, 1, 1]            [-1, 64, 1, 1]            --                        --                        --
|    |    |    |    |    |    |    └─Conv2d: 8-53            [-1, 64, 1, 1]            [-1, 4, 1, 1]             [64, 4, 1, 1]             260                       256
|    |    |    |    |    |    |    └─ReLU: 8-54              [-1, 4, 1, 1]             [-1, 4, 1, 1]             --                        --                        --
|    |    |    |    |    |    |    └─Conv2d: 8-55            [-1, 4, 1, 1]             [-1, 64, 1, 1]            [4, 64, 1, 1]             320                       256
|    |    |    |    |    |    |    └─Sigmoid: 8-56           [-1, 64, 1, 1]            [-1, 64, 1, 1]            --                        --                        --
|    |    |    └─RCAB: 4-15                                  [-1, 64, 48, 48]          [-1, 64, 48, 48]          --                        --                        --
|    |    |    |    └─Sequential: 5-15                       [-1, 64, 48, 48]          [-1, 64, 48, 48]          --                        --                        --
|    |    |    |    |    └─Conv2d: 6-57                      [-1, 64, 48, 48]          [-1, 64, 48, 48]          [64, 64, 3, 3]            36,928                    84,934,656
|    |    |    |    |    └─ReLU: 6-58                        [-1, 64, 48, 48]          [-1, 64, 48, 48]          --                        --                        --
|    |    |    |    |    └─Conv2d: 6-59                      [-1, 64, 48, 48]          [-1, 64, 48, 48]          [64, 64, 3, 3]            36,928                    84,934,656
|    |    |    |    |    └─CALayer: 6-60                     [-1, 64, 48, 48]          [-1, 64, 48, 48]          --                        --                        --
|    |    |    |    |    |    └─AdaptiveAvgPool2d: 7-29      [-1, 64, 48, 48]          [-1, 64, 1, 1]            --                        --                        --
|    |    |    |    |    |    └─Sequential: 7-30             [-1, 64, 1, 1]            [-1, 64, 1, 1]            --                        --                        --
|    |    |    |    |    |    |    └─Conv2d: 8-57            [-1, 64, 1, 1]            [-1, 4, 1, 1]             [64, 4, 1, 1]             260                       256
|    |    |    |    |    |    |    └─ReLU: 8-58              [-1, 4, 1, 1]             [-1, 4, 1, 1]             --                        --                        --
|    |    |    |    |    |    |    └─Conv2d: 8-59            [-1, 4, 1, 1]             [-1, 64, 1, 1]            [4, 64, 1, 1]             320                       256
|    |    |    |    |    |    |    └─Sigmoid: 8-60           [-1, 64, 1, 1]            [-1, 64, 1, 1]            --                        --                        --
|    |    |    └─RCAB: 4-16                                  [-1, 64, 48, 48]          [-1, 64, 48, 48]          --                        --                        --
|    |    |    |    └─Sequential: 5-16                       [-1, 64, 48, 48]          [-1, 64, 48, 48]          --                        --                        --
|    |    |    |    |    └─Conv2d: 6-61                      [-1, 64, 48, 48]          [-1, 64, 48, 48]          [64, 64, 3, 3]            36,928                    84,934,656
|    |    |    |    |    └─ReLU: 6-62                        [-1, 64, 48, 48]          [-1, 64, 48, 48]          --                        --                        --
|    |    |    |    |    └─Conv2d: 6-63                      [-1, 64, 48, 48]          [-1, 64, 48, 48]          [64, 64, 3, 3]            36,928                    84,934,656
|    |    |    |    |    └─CALayer: 6-64                     [-1, 64, 48, 48]          [-1, 64, 48, 48]          --                        --                        --
|    |    |    |    |    |    └─AdaptiveAvgPool2d: 7-31      [-1, 64, 48, 48]          [-1, 64, 1, 1]            --                        --                        --
|    |    |    |    |    |    └─Sequential: 7-32             [-1, 64, 1, 1]            [-1, 64, 1, 1]            --                        --                        --
|    |    |    |    |    |    |    └─Conv2d: 8-61            [-1, 64, 1, 1]            [-1, 4, 1, 1]             [64, 4, 1, 1]             260                       256
|    |    |    |    |    |    |    └─ReLU: 8-62              [-1, 4, 1, 1]             [-1, 4, 1, 1]             --                        --                        --
|    |    |    |    |    |    |    └─Conv2d: 8-63            [-1, 4, 1, 1]             [-1, 64, 1, 1]            [4, 64, 1, 1]             320                       256
|    |    |    |    |    |    |    └─Sigmoid: 8-64           [-1, 64, 1, 1]            [-1, 64, 1, 1]            --                        --                        --
|    |    |    └─RCAB: 4-17                                  [-1, 64, 48, 48]          [-1, 64, 48, 48]          --                        --                        --
|    |    |    |    └─Sequential: 5-17                       [-1, 64, 48, 48]          [-1, 64, 48, 48]          --                        --                        --
|    |    |    |    |    └─Conv2d: 6-65                      [-1, 64, 48, 48]          [-1, 64, 48, 48]          [64, 64, 3, 3]            36,928                    84,934,656
|    |    |    |    |    └─ReLU: 6-66                        [-1, 64, 48, 48]          [-1, 64, 48, 48]          --                        --                        --
|    |    |    |    |    └─Conv2d: 6-67                      [-1, 64, 48, 48]          [-1, 64, 48, 48]          [64, 64, 3, 3]            36,928                    84,934,656
|    |    |    |    |    └─CALayer: 6-68                     [-1, 64, 48, 48]          [-1, 64, 48, 48]          --                        --                        --
|    |    |    |    |    |    └─AdaptiveAvgPool2d: 7-33      [-1, 64, 48, 48]          [-1, 64, 1, 1]            --                        --                        --
|    |    |    |    |    |    └─Sequential: 7-34             [-1, 64, 1, 1]            [-1, 64, 1, 1]            --                        --                        --
|    |    |    |    |    |    |    └─Conv2d: 8-65            [-1, 64, 1, 1]            [-1, 4, 1, 1]             [64, 4, 1, 1]             260                       256
|    |    |    |    |    |    |    └─ReLU: 8-66              [-1, 4, 1, 1]             [-1, 4, 1, 1]             --                        --                        --
|    |    |    |    |    |    |    └─Conv2d: 8-67            [-1, 4, 1, 1]             [-1, 64, 1, 1]            [4, 64, 1, 1]             320                       256
|    |    |    |    |    |    |    └─Sigmoid: 8-68           [-1, 64, 1, 1]            [-1, 64, 1, 1]            --                        --                        --
|    |    |    └─RCAB: 4-18                                  [-1, 64, 48, 48]          [-1, 64, 48, 48]          --                        --                        --
|    |    |    |    └─Sequential: 5-18                       [-1, 64, 48, 48]          [-1, 64, 48, 48]          --                        --                        --
|    |    |    |    |    └─Conv2d: 6-69                      [-1, 64, 48, 48]          [-1, 64, 48, 48]          [64, 64, 3, 3]            36,928                    84,934,656
|    |    |    |    |    └─ReLU: 6-70                        [-1, 64, 48, 48]          [-1, 64, 48, 48]          --                        --                        --
|    |    |    |    |    └─Conv2d: 6-71                      [-1, 64, 48, 48]          [-1, 64, 48, 48]          [64, 64, 3, 3]            36,928                    84,934,656
|    |    |    |    |    └─CALayer: 6-72                     [-1, 64, 48, 48]          [-1, 64, 48, 48]          --                        --                        --
|    |    |    |    |    |    └─AdaptiveAvgPool2d: 7-35      [-1, 64, 48, 48]          [-1, 64, 1, 1]            --                        --                        --
|    |    |    |    |    |    └─Sequential: 7-36             [-1, 64, 1, 1]            [-1, 64, 1, 1]            --                        --                        --
|    |    |    |    |    |    |    └─Conv2d: 8-69            [-1, 64, 1, 1]            [-1, 4, 1, 1]             [64, 4, 1, 1]             260                       256
|    |    |    |    |    |    |    └─ReLU: 8-70              [-1, 4, 1, 1]             [-1, 4, 1, 1]             --                        --                        --
|    |    |    |    |    |    |    └─Conv2d: 8-71            [-1, 4, 1, 1]             [-1, 64, 1, 1]            [4, 64, 1, 1]             320                       256
|    |    |    |    |    |    |    └─Sigmoid: 8-72           [-1, 64, 1, 1]            [-1, 64, 1, 1]            --                        --                        --
|    |    |    └─RCAB: 4-19                                  [-1, 64, 48, 48]          [-1, 64, 48, 48]          --                        --                        --
|    |    |    |    └─Sequential: 5-19                       [-1, 64, 48, 48]          [-1, 64, 48, 48]          --                        --                        --
|    |    |    |    |    └─Conv2d: 6-73                      [-1, 64, 48, 48]          [-1, 64, 48, 48]          [64, 64, 3, 3]            36,928                    84,934,656
|    |    |    |    |    └─ReLU: 6-74                        [-1, 64, 48, 48]          [-1, 64, 48, 48]          --                        --                        --
|    |    |    |    |    └─Conv2d: 6-75                      [-1, 64, 48, 48]          [-1, 64, 48, 48]          [64, 64, 3, 3]            36,928                    84,934,656
|    |    |    |    |    └─CALayer: 6-76                     [-1, 64, 48, 48]          [-1, 64, 48, 48]          --                        --                        --
|    |    |    |    |    |    └─AdaptiveAvgPool2d: 7-37      [-1, 64, 48, 48]          [-1, 64, 1, 1]            --                        --                        --
|    |    |    |    |    |    └─Sequential: 7-38             [-1, 64, 1, 1]            [-1, 64, 1, 1]            --                        --                        --
|    |    |    |    |    |    |    └─Conv2d: 8-73            [-1, 64, 1, 1]            [-1, 4, 1, 1]             [64, 4, 1, 1]             260                       256
|    |    |    |    |    |    |    └─ReLU: 8-74              [-1, 4, 1, 1]             [-1, 4, 1, 1]             --                        --                        --
|    |    |    |    |    |    |    └─Conv2d: 8-75            [-1, 4, 1, 1]             [-1, 64, 1, 1]            [4, 64, 1, 1]             320                       256
|    |    |    |    |    |    |    └─Sigmoid: 8-76           [-1, 64, 1, 1]            [-1, 64, 1, 1]            --                        --                        --
|    |    |    └─RCAB: 4-20                                  [-1, 64, 48, 48]          [-1, 64, 48, 48]          --                        --                        --
|    |    |    |    └─Sequential: 5-20                       [-1, 64, 48, 48]          [-1, 64, 48, 48]          --                        --                        --
|    |    |    |    |    └─Conv2d: 6-77                      [-1, 64, 48, 48]          [-1, 64, 48, 48]          [64, 64, 3, 3]            36,928                    84,934,656
|    |    |    |    |    └─ReLU: 6-78                        [-1, 64, 48, 48]          [-1, 64, 48, 48]          --                        --                        --
|    |    |    |    |    └─Conv2d: 6-79                      [-1, 64, 48, 48]          [-1, 64, 48, 48]          [64, 64, 3, 3]            36,928                    84,934,656
|    |    |    |    |    └─CALayer: 6-80                     [-1, 64, 48, 48]          [-1, 64, 48, 48]          --                        --                        --
|    |    |    |    |    |    └─AdaptiveAvgPool2d: 7-39      [-1, 64, 48, 48]          [-1, 64, 1, 1]            --                        --                        --
|    |    |    |    |    |    └─Sequential: 7-40             [-1, 64, 1, 1]            [-1, 64, 1, 1]            --                        --                        --
|    |    |    |    |    |    |    └─Conv2d: 8-77            [-1, 64, 1, 1]            [-1, 4, 1, 1]             [64, 4, 1, 1]             260                       256
|    |    |    |    |    |    |    └─ReLU: 8-78              [-1, 4, 1, 1]             [-1, 4, 1, 1]             --                        --                        --
|    |    |    |    |    |    |    └─Conv2d: 8-79            [-1, 4, 1, 1]             [-1, 64, 1, 1]            [4, 64, 1, 1]             320                       256
|    |    |    |    |    |    |    └─Sigmoid: 8-80           [-1, 64, 1, 1]            [-1, 64, 1, 1]            --                        --                        --
|    |    |    └─Conv2d: 4-21                                [-1, 64, 48, 48]          [-1, 64, 48, 48]          [64, 64, 3, 3]            36,928                    84,934,656
|    └─ResidualGroup: 2-3                                    [-1, 64, 48, 48]          [-1, 64, 48, 48]          --                        --                        --
|    |    └─Sequential: 3-2                                  [-1, 64, 48, 48]          [-1, 64, 48, 48]          --                        --                        --
|    |    |    └─RCAB: 4-22                                  [-1, 64, 48, 48]          [-1, 64, 48, 48]          --                        --                        --
|    |    |    |    └─Sequential: 5-21                       [-1, 64, 48, 48]          [-1, 64, 48, 48]          --                        --                        --
|    |    |    |    |    └─Conv2d: 6-81                      [-1, 64, 48, 48]          [-1, 64, 48, 48]          [64, 64, 3, 3]            36,928                    84,934,656
|    |    |    |    |    └─ReLU: 6-82                        [-1, 64, 48, 48]          [-1, 64, 48, 48]          --                        --                        --
|    |    |    |    |    └─Conv2d: 6-83                      [-1, 64, 48, 48]          [-1, 64, 48, 48]          [64, 64, 3, 3]            36,928                    84,934,656
|    |    |    |    |    └─CALayer: 6-84                     [-1, 64, 48, 48]          [-1, 64, 48, 48]          --                        --                        --
|    |    |    |    |    |    └─AdaptiveAvgPool2d: 7-41      [-1, 64, 48, 48]          [-1, 64, 1, 1]            --                        --                        --
|    |    |    |    |    |    └─Sequential: 7-42             [-1, 64, 1, 1]            [-1, 64, 1, 1]            --                        --                        --
|    |    |    |    |    |    |    └─Conv2d: 8-81            [-1, 64, 1, 1]            [-1, 4, 1, 1]             [64, 4, 1, 1]             260                       256
|    |    |    |    |    |    |    └─ReLU: 8-82              [-1, 4, 1, 1]             [-1, 4, 1, 1]             --                        --                        --
|    |    |    |    |    |    |    └─Conv2d: 8-83            [-1, 4, 1, 1]             [-1, 64, 1, 1]            [4, 64, 1, 1]             320                       256
|    |    |    |    |    |    |    └─Sigmoid: 8-84           [-1, 64, 1, 1]            [-1, 64, 1, 1]            --                        --                        --
|    |    |    └─RCAB: 4-23                                  [-1, 64, 48, 48]          [-1, 64, 48, 48]          --                        --                        --
|    |    |    |    └─Sequential: 5-22                       [-1, 64, 48, 48]          [-1, 64, 48, 48]          --                        --                        --
|    |    |    |    |    └─Conv2d: 6-85                      [-1, 64, 48, 48]          [-1, 64, 48, 48]          [64, 64, 3, 3]            36,928                    84,934,656
|    |    |    |    |    └─ReLU: 6-86                        [-1, 64, 48, 48]          [-1, 64, 48, 48]          --                        --                        --
|    |    |    |    |    └─Conv2d: 6-87                      [-1, 64, 48, 48]          [-1, 64, 48, 48]          [64, 64, 3, 3]            36,928                    84,934,656
|    |    |    |    |    └─CALayer: 6-88                     [-1, 64, 48, 48]          [-1, 64, 48, 48]          --                        --                        --
|    |    |    |    |    |    └─AdaptiveAvgPool2d: 7-43      [-1, 64, 48, 48]          [-1, 64, 1, 1]            --                        --                        --
|    |    |    |    |    |    └─Sequential: 7-44             [-1, 64, 1, 1]            [-1, 64, 1, 1]            --                        --                        --
|    |    |    |    |    |    |    └─Conv2d: 8-85            [-1, 64, 1, 1]            [-1, 4, 1, 1]             [64, 4, 1, 1]             260                       256
|    |    |    |    |    |    |    └─ReLU: 8-86              [-1, 4, 1, 1]             [-1, 4, 1, 1]             --                        --                        --
|    |    |    |    |    |    |    └─Conv2d: 8-87            [-1, 4, 1, 1]             [-1, 64, 1, 1]            [4, 64, 1, 1]             320                       256
|    |    |    |    |    |    |    └─Sigmoid: 8-88           [-1, 64, 1, 1]            [-1, 64, 1, 1]            --                        --                        --
|    |    |    └─RCAB: 4-24                                  [-1, 64, 48, 48]          [-1, 64, 48, 48]          --                        --                        --
|    |    |    |    └─Sequential: 5-23                       [-1, 64, 48, 48]          [-1, 64, 48, 48]          --                        --                        --
|    |    |    |    |    └─Conv2d: 6-89                      [-1, 64, 48, 48]          [-1, 64, 48, 48]          [64, 64, 3, 3]            36,928                    84,934,656
|    |    |    |    |    └─ReLU: 6-90                        [-1, 64, 48, 48]          [-1, 64, 48, 48]          --                        --                        --
|    |    |    |    |    └─Conv2d: 6-91                      [-1, 64, 48, 48]          [-1, 64, 48, 48]          [64, 64, 3, 3]            36,928                    84,934,656
|    |    |    |    |    └─CALayer: 6-92                     [-1, 64, 48, 48]          [-1, 64, 48, 48]          --                        --                        --
|    |    |    |    |    |    └─AdaptiveAvgPool2d: 7-45      [-1, 64, 48, 48]          [-1, 64, 1, 1]            --                        --                        --
|    |    |    |    |    |    └─Sequential: 7-46             [-1, 64, 1, 1]            [-1, 64, 1, 1]            --                        --                        --
|    |    |    |    |    |    |    └─Conv2d: 8-89            [-1, 64, 1, 1]            [-1, 4, 1, 1]             [64, 4, 1, 1]             260                       256
|    |    |    |    |    |    |    └─ReLU: 8-90              [-1, 4, 1, 1]             [-1, 4, 1, 1]             --                        --                        --
|    |    |    |    |    |    |    └─Conv2d: 8-91            [-1, 4, 1, 1]             [-1, 64, 1, 1]            [4, 64, 1, 1]             320                       256
|    |    |    |    |    |    |    └─Sigmoid: 8-92           [-1, 64, 1, 1]            [-1, 64, 1, 1]            --                        --                        --
|    |    |    └─RCAB: 4-25                                  [-1, 64, 48, 48]          [-1, 64, 48, 48]          --                        --                        --
|    |    |    |    └─Sequential: 5-24                       [-1, 64, 48, 48]          [-1, 64, 48, 48]          --                        --                        --
|    |    |    |    |    └─Conv2d: 6-93                      [-1, 64, 48, 48]          [-1, 64, 48, 48]          [64, 64, 3, 3]            36,928                    84,934,656
|    |    |    |    |    └─ReLU: 6-94                        [-1, 64, 48, 48]          [-1, 64, 48, 48]          --                        --                        --
|    |    |    |    |    └─Conv2d: 6-95                      [-1, 64, 48, 48]          [-1, 64, 48, 48]          [64, 64, 3, 3]            36,928                    84,934,656
|    |    |    |    |    └─CALayer: 6-96                     [-1, 64, 48, 48]          [-1, 64, 48, 48]          --                        --                        --
|    |    |    |    |    |    └─AdaptiveAvgPool2d: 7-47      [-1, 64, 48, 48]          [-1, 64, 1, 1]            --                        --                        --
|    |    |    |    |    |    └─Sequential: 7-48             [-1, 64, 1, 1]            [-1, 64, 1, 1]            --                        --                        --
|    |    |    |    |    |    |    └─Conv2d: 8-93            [-1, 64, 1, 1]            [-1, 4, 1, 1]             [64, 4, 1, 1]             260                       256
|    |    |    |    |    |    |    └─ReLU: 8-94              [-1, 4, 1, 1]             [-1, 4, 1, 1]             --                        --                        --
|    |    |    |    |    |    |    └─Conv2d: 8-95            [-1, 4, 1, 1]             [-1, 64, 1, 1]            [4, 64, 1, 1]             320                       256
|    |    |    |    |    |    |    └─Sigmoid: 8-96           [-1, 64, 1, 1]            [-1, 64, 1, 1]            --                        --                        --
|    |    |    └─RCAB: 4-26                                  [-1, 64, 48, 48]          [-1, 64, 48, 48]          --                        --                        --
|    |    |    |    └─Sequential: 5-25                       [-1, 64, 48, 48]          [-1, 64, 48, 48]          --                        --                        --
|    |    |    |    |    └─Conv2d: 6-97                      [-1, 64, 48, 48]          [-1, 64, 48, 48]          [64, 64, 3, 3]            36,928                    84,934,656
|    |    |    |    |    └─ReLU: 6-98                        [-1, 64, 48, 48]          [-1, 64, 48, 48]          --                        --                        --
|    |    |    |    |    └─Conv2d: 6-99                      [-1, 64, 48, 48]          [-1, 64, 48, 48]          [64, 64, 3, 3]            36,928                    84,934,656
|    |    |    |    |    └─CALayer: 6-100                    [-1, 64, 48, 48]          [-1, 64, 48, 48]          --                        --                        --
|    |    |    |    |    |    └─AdaptiveAvgPool2d: 7-49      [-1, 64, 48, 48]          [-1, 64, 1, 1]            --                        --                        --
|    |    |    |    |    |    └─Sequential: 7-50             [-1, 64, 1, 1]            [-1, 64, 1, 1]            --                        --                        --
|    |    |    |    |    |    |    └─Conv2d: 8-97            [-1, 64, 1, 1]            [-1, 4, 1, 1]             [64, 4, 1, 1]             260                       256
|    |    |    |    |    |    |    └─ReLU: 8-98              [-1, 4, 1, 1]             [-1, 4, 1, 1]             --                        --                        --
|    |    |    |    |    |    |    └─Conv2d: 8-99            [-1, 4, 1, 1]             [-1, 64, 1, 1]            [4, 64, 1, 1]             320                       256
|    |    |    |    |    |    |    └─Sigmoid: 8-100          [-1, 64, 1, 1]            [-1, 64, 1, 1]            --                        --                        --
|    |    |    └─RCAB: 4-27                                  [-1, 64, 48, 48]          [-1, 64, 48, 48]          --                        --                        --
|    |    |    |    └─Sequential: 5-26                       [-1, 64, 48, 48]          [-1, 64, 48, 48]          --                        --                        --
|    |    |    |    |    └─Conv2d: 6-101                     [-1, 64, 48, 48]          [-1, 64, 48, 48]          [64, 64, 3, 3]            36,928                    84,934,656
|    |    |    |    |    └─ReLU: 6-102                       [-1, 64, 48, 48]          [-1, 64, 48, 48]          --                        --                        --
|    |    |    |    |    └─Conv2d: 6-103                     [-1, 64, 48, 48]          [-1, 64, 48, 48]          [64, 64, 3, 3]            36,928                    84,934,656
|    |    |    |    |    └─CALayer: 6-104                    [-1, 64, 48, 48]          [-1, 64, 48, 48]          --                        --                        --
|    |    |    |    |    |    └─AdaptiveAvgPool2d: 7-51      [-1, 64, 48, 48]          [-1, 64, 1, 1]            --                        --                        --
|    |    |    |    |    |    └─Sequential: 7-52             [-1, 64, 1, 1]            [-1, 64, 1, 1]            --                        --                        --
|    |    |    |    |    |    |    └─Conv2d: 8-101           [-1, 64, 1, 1]            [-1, 4, 1, 1]             [64, 4, 1, 1]             260                       256
|    |    |    |    |    |    |    └─ReLU: 8-102             [-1, 4, 1, 1]             [-1, 4, 1, 1]             --                        --                        --
|    |    |    |    |    |    |    └─Conv2d: 8-103           [-1, 4, 1, 1]             [-1, 64, 1, 1]            [4, 64, 1, 1]             320                       256
|    |    |    |    |    |    |    └─Sigmoid: 8-104          [-1, 64, 1, 1]            [-1, 64, 1, 1]            --                        --                        --
|    |    |    └─RCAB: 4-28                                  [-1, 64, 48, 48]          [-1, 64, 48, 48]          --                        --                        --
|    |    |    |    └─Sequential: 5-27                       [-1, 64, 48, 48]          [-1, 64, 48, 48]          --                        --                        --
|    |    |    |    |    └─Conv2d: 6-105                     [-1, 64, 48, 48]          [-1, 64, 48, 48]          [64, 64, 3, 3]            36,928                    84,934,656
|    |    |    |    |    └─ReLU: 6-106                       [-1, 64, 48, 48]          [-1, 64, 48, 48]          --                        --                        --
|    |    |    |    |    └─Conv2d: 6-107                     [-1, 64, 48, 48]          [-1, 64, 48, 48]          [64, 64, 3, 3]            36,928                    84,934,656
|    |    |    |    |    └─CALayer: 6-108                    [-1, 64, 48, 48]          [-1, 64, 48, 48]          --                        --                        --
|    |    |    |    |    |    └─AdaptiveAvgPool2d: 7-53      [-1, 64, 48, 48]          [-1, 64, 1, 1]            --                        --                        --
|    |    |    |    |    |    └─Sequential: 7-54             [-1, 64, 1, 1]            [-1, 64, 1, 1]            --                        --                        --
|    |    |    |    |    |    |    └─Conv2d: 8-105           [-1, 64, 1, 1]            [-1, 4, 1, 1]             [64, 4, 1, 1]             260                       256
|    |    |    |    |    |    |    └─ReLU: 8-106             [-1, 4, 1, 1]             [-1, 4, 1, 1]             --                        --                        --
|    |    |    |    |    |    |    └─Conv2d: 8-107           [-1, 4, 1, 1]             [-1, 64, 1, 1]            [4, 64, 1, 1]             320                       256
|    |    |    |    |    |    |    └─Sigmoid: 8-108          [-1, 64, 1, 1]            [-1, 64, 1, 1]            --                        --                        --
|    |    |    └─RCAB: 4-29                                  [-1, 64, 48, 48]          [-1, 64, 48, 48]          --                        --                        --
|    |    |    |    └─Sequential: 5-28                       [-1, 64, 48, 48]          [-1, 64, 48, 48]          --                        --                        --
|    |    |    |    |    └─Conv2d: 6-109                     [-1, 64, 48, 48]          [-1, 64, 48, 48]          [64, 64, 3, 3]            36,928                    84,934,656
|    |    |    |    |    └─ReLU: 6-110                       [-1, 64, 48, 48]          [-1, 64, 48, 48]          --                        --                        --
|    |    |    |    |    └─Conv2d: 6-111                     [-1, 64, 48, 48]          [-1, 64, 48, 48]          [64, 64, 3, 3]            36,928                    84,934,656
|    |    |    |    |    └─CALayer: 6-112                    [-1, 64, 48, 48]          [-1, 64, 48, 48]          --                        --                        --
|    |    |    |    |    |    └─AdaptiveAvgPool2d: 7-55      [-1, 64, 48, 48]          [-1, 64, 1, 1]            --                        --                        --
|    |    |    |    |    |    └─Sequential: 7-56             [-1, 64, 1, 1]            [-1, 64, 1, 1]            --                        --                        --
|    |    |    |    |    |    |    └─Conv2d: 8-109           [-1, 64, 1, 1]            [-1, 4, 1, 1]             [64, 4, 1, 1]             260                       256
|    |    |    |    |    |    |    └─ReLU: 8-110             [-1, 4, 1, 1]             [-1, 4, 1, 1]             --                        --                        --
|    |    |    |    |    |    |    └─Conv2d: 8-111           [-1, 4, 1, 1]             [-1, 64, 1, 1]            [4, 64, 1, 1]             320                       256
|    |    |    |    |    |    |    └─Sigmoid: 8-112          [-1, 64, 1, 1]            [-1, 64, 1, 1]            --                        --                        --
|    |    |    └─RCAB: 4-30                                  [-1, 64, 48, 48]          [-1, 64, 48, 48]          --                        --                        --
|    |    |    |    └─Sequential: 5-29                       [-1, 64, 48, 48]          [-1, 64, 48, 48]          --                        --                        --
|    |    |    |    |    └─Conv2d: 6-113                     [-1, 64, 48, 48]          [-1, 64, 48, 48]          [64, 64, 3, 3]            36,928                    84,934,656
|    |    |    |    |    └─ReLU: 6-114                       [-1, 64, 48, 48]          [-1, 64, 48, 48]          --                        --                        --
|    |    |    |    |    └─Conv2d: 6-115                     [-1, 64, 48, 48]          [-1, 64, 48, 48]          [64, 64, 3, 3]            36,928                    84,934,656
|    |    |    |    |    └─CALayer: 6-116                    [-1, 64, 48, 48]          [-1, 64, 48, 48]          --                        --                        --
|    |    |    |    |    |    └─AdaptiveAvgPool2d: 7-57      [-1, 64, 48, 48]          [-1, 64, 1, 1]            --                        --                        --
|    |    |    |    |    |    └─Sequential: 7-58             [-1, 64, 1, 1]            [-1, 64, 1, 1]            --                        --                        --
|    |    |    |    |    |    |    └─Conv2d: 8-113           [-1, 64, 1, 1]            [-1, 4, 1, 1]             [64, 4, 1, 1]             260                       256
|    |    |    |    |    |    |    └─ReLU: 8-114             [-1, 4, 1, 1]             [-1, 4, 1, 1]             --                        --                        --
|    |    |    |    |    |    |    └─Conv2d: 8-115           [-1, 4, 1, 1]             [-1, 64, 1, 1]            [4, 64, 1, 1]             320                       256
|    |    |    |    |    |    |    └─Sigmoid: 8-116          [-1, 64, 1, 1]            [-1, 64, 1, 1]            --                        --                        --
|    |    |    └─RCAB: 4-31                                  [-1, 64, 48, 48]          [-1, 64, 48, 48]          --                        --                        --
|    |    |    |    └─Sequential: 5-30                       [-1, 64, 48, 48]          [-1, 64, 48, 48]          --                        --                        --
|    |    |    |    |    └─Conv2d: 6-117                     [-1, 64, 48, 48]          [-1, 64, 48, 48]          [64, 64, 3, 3]            36,928                    84,934,656
|    |    |    |    |    └─ReLU: 6-118                       [-1, 64, 48, 48]          [-1, 64, 48, 48]          --                        --                        --
|    |    |    |    |    └─Conv2d: 6-119                     [-1, 64, 48, 48]          [-1, 64, 48, 48]          [64, 64, 3, 3]            36,928                    84,934,656
|    |    |    |    |    └─CALayer: 6-120                    [-1, 64, 48, 48]          [-1, 64, 48, 48]          --                        --                        --
|    |    |    |    |    |    └─AdaptiveAvgPool2d: 7-59      [-1, 64, 48, 48]          [-1, 64, 1, 1]            --                        --                        --
|    |    |    |    |    |    └─Sequential: 7-60             [-1, 64, 1, 1]            [-1, 64, 1, 1]            --                        --                        --
|    |    |    |    |    |    |    └─Conv2d: 8-117           [-1, 64, 1, 1]            [-1, 4, 1, 1]             [64, 4, 1, 1]             260                       256
|    |    |    |    |    |    |    └─ReLU: 8-118             [-1, 4, 1, 1]             [-1, 4, 1, 1]             --                        --                        --
|    |    |    |    |    |    |    └─Conv2d: 8-119           [-1, 4, 1, 1]             [-1, 64, 1, 1]            [4, 64, 1, 1]             320                       256
|    |    |    |    |    |    |    └─Sigmoid: 8-120          [-1, 64, 1, 1]            [-1, 64, 1, 1]            --                        --                        --
|    |    |    └─RCAB: 4-32                                  [-1, 64, 48, 48]          [-1, 64, 48, 48]          --                        --                        --
|    |    |    |    └─Sequential: 5-31                       [-1, 64, 48, 48]          [-1, 64, 48, 48]          --                        --                        --
|    |    |    |    |    └─Conv2d: 6-121                     [-1, 64, 48, 48]          [-1, 64, 48, 48]          [64, 64, 3, 3]            36,928                    84,934,656
|    |    |    |    |    └─ReLU: 6-122                       [-1, 64, 48, 48]          [-1, 64, 48, 48]          --                        --                        --
|    |    |    |    |    └─Conv2d: 6-123                     [-1, 64, 48, 48]          [-1, 64, 48, 48]          [64, 64, 3, 3]            36,928                    84,934,656
|    |    |    |    |    └─CALayer: 6-124                    [-1, 64, 48, 48]          [-1, 64, 48, 48]          --                        --                        --
|    |    |    |    |    |    └─AdaptiveAvgPool2d: 7-61      [-1, 64, 48, 48]          [-1, 64, 1, 1]            --                        --                        --
|    |    |    |    |    |    └─Sequential: 7-62             [-1, 64, 1, 1]            [-1, 64, 1, 1]            --                        --                        --
|    |    |    |    |    |    |    └─Conv2d: 8-121           [-1, 64, 1, 1]            [-1, 4, 1, 1]             [64, 4, 1, 1]             260                       256
|    |    |    |    |    |    |    └─ReLU: 8-122             [-1, 4, 1, 1]             [-1, 4, 1, 1]             --                        --                        --
|    |    |    |    |    |    |    └─Conv2d: 8-123           [-1, 4, 1, 1]             [-1, 64, 1, 1]            [4, 64, 1, 1]             320                       256
|    |    |    |    |    |    |    └─Sigmoid: 8-124          [-1, 64, 1, 1]            [-1, 64, 1, 1]            --                        --                        --
|    |    |    └─RCAB: 4-33                                  [-1, 64, 48, 48]          [-1, 64, 48, 48]          --                        --                        --
|    |    |    |    └─Sequential: 5-32                       [-1, 64, 48, 48]          [-1, 64, 48, 48]          --                        --                        --
|    |    |    |    |    └─Conv2d: 6-125                     [-1, 64, 48, 48]          [-1, 64, 48, 48]          [64, 64, 3, 3]            36,928                    84,934,656
|    |    |    |    |    └─ReLU: 6-126                       [-1, 64, 48, 48]          [-1, 64, 48, 48]          --                        --                        --
|    |    |    |    |    └─Conv2d: 6-127                     [-1, 64, 48, 48]          [-1, 64, 48, 48]          [64, 64, 3, 3]            36,928                    84,934,656
|    |    |    |    |    └─CALayer: 6-128                    [-1, 64, 48, 48]          [-1, 64, 48, 48]          --                        --                        --
|    |    |    |    |    |    └─AdaptiveAvgPool2d: 7-63      [-1, 64, 48, 48]          [-1, 64, 1, 1]            --                        --                        --
|    |    |    |    |    |    └─Sequential: 7-64             [-1, 64, 1, 1]            [-1, 64, 1, 1]            --                        --                        --
|    |    |    |    |    |    |    └─Conv2d: 8-125           [-1, 64, 1, 1]            [-1, 4, 1, 1]             [64, 4, 1, 1]             260                       256
|    |    |    |    |    |    |    └─ReLU: 8-126             [-1, 4, 1, 1]             [-1, 4, 1, 1]             --                        --                        --
|    |    |    |    |    |    |    └─Conv2d: 8-127           [-1, 4, 1, 1]             [-1, 64, 1, 1]            [4, 64, 1, 1]             320                       256
|    |    |    |    |    |    |    └─Sigmoid: 8-128          [-1, 64, 1, 1]            [-1, 64, 1, 1]            --                        --                        --
|    |    |    └─RCAB: 4-34                                  [-1, 64, 48, 48]          [-1, 64, 48, 48]          --                        --                        --
|    |    |    |    └─Sequential: 5-33                       [-1, 64, 48, 48]          [-1, 64, 48, 48]          --                        --                        --
|    |    |    |    |    └─Conv2d: 6-129                     [-1, 64, 48, 48]          [-1, 64, 48, 48]          [64, 64, 3, 3]            36,928                    84,934,656
|    |    |    |    |    └─ReLU: 6-130                       [-1, 64, 48, 48]          [-1, 64, 48, 48]          --                        --                        --
|    |    |    |    |    └─Conv2d: 6-131                     [-1, 64, 48, 48]          [-1, 64, 48, 48]          [64, 64, 3, 3]            36,928                    84,934,656
|    |    |    |    |    └─CALayer: 6-132                    [-1, 64, 48, 48]          [-1, 64, 48, 48]          --                        --                        --
|    |    |    |    |    |    └─AdaptiveAvgPool2d: 7-65      [-1, 64, 48, 48]          [-1, 64, 1, 1]            --                        --                        --
|    |    |    |    |    |    └─Sequential: 7-66             [-1, 64, 1, 1]            [-1, 64, 1, 1]            --                        --                        --
|    |    |    |    |    |    |    └─Conv2d: 8-129           [-1, 64, 1, 1]            [-1, 4, 1, 1]             [64, 4, 1, 1]             260                       256
|    |    |    |    |    |    |    └─ReLU: 8-130             [-1, 4, 1, 1]             [-1, 4, 1, 1]             --                        --                        --
|    |    |    |    |    |    |    └─Conv2d: 8-131           [-1, 4, 1, 1]             [-1, 64, 1, 1]            [4, 64, 1, 1]             320                       256
|    |    |    |    |    |    |    └─Sigmoid: 8-132          [-1, 64, 1, 1]            [-1, 64, 1, 1]            --                        --                        --
|    |    |    └─RCAB: 4-35                                  [-1, 64, 48, 48]          [-1, 64, 48, 48]          --                        --                        --
|    |    |    |    └─Sequential: 5-34                       [-1, 64, 48, 48]          [-1, 64, 48, 48]          --                        --                        --
|    |    |    |    |    └─Conv2d: 6-133                     [-1, 64, 48, 48]          [-1, 64, 48, 48]          [64, 64, 3, 3]            36,928                    84,934,656
|    |    |    |    |    └─ReLU: 6-134                       [-1, 64, 48, 48]          [-1, 64, 48, 48]          --                        --                        --
|    |    |    |    |    └─Conv2d: 6-135                     [-1, 64, 48, 48]          [-1, 64, 48, 48]          [64, 64, 3, 3]            36,928                    84,934,656
|    |    |    |    |    └─CALayer: 6-136                    [-1, 64, 48, 48]          [-1, 64, 48, 48]          --                        --                        --
|    |    |    |    |    |    └─AdaptiveAvgPool2d: 7-67      [-1, 64, 48, 48]          [-1, 64, 1, 1]            --                        --                        --
|    |    |    |    |    |    └─Sequential: 7-68             [-1, 64, 1, 1]            [-1, 64, 1, 1]            --                        --                        --
|    |    |    |    |    |    |    └─Conv2d: 8-133           [-1, 64, 1, 1]            [-1, 4, 1, 1]             [64, 4, 1, 1]             260                       256
|    |    |    |    |    |    |    └─ReLU: 8-134             [-1, 4, 1, 1]             [-1, 4, 1, 1]             --                        --                        --
|    |    |    |    |    |    |    └─Conv2d: 8-135           [-1, 4, 1, 1]             [-1, 64, 1, 1]            [4, 64, 1, 1]             320                       256
|    |    |    |    |    |    |    └─Sigmoid: 8-136          [-1, 64, 1, 1]            [-1, 64, 1, 1]            --                        --                        --
|    |    |    └─RCAB: 4-36                                  [-1, 64, 48, 48]          [-1, 64, 48, 48]          --                        --                        --
|    |    |    |    └─Sequential: 5-35                       [-1, 64, 48, 48]          [-1, 64, 48, 48]          --                        --                        --
|    |    |    |    |    └─Conv2d: 6-137                     [-1, 64, 48, 48]          [-1, 64, 48, 48]          [64, 64, 3, 3]            36,928                    84,934,656
|    |    |    |    |    └─ReLU: 6-138                       [-1, 64, 48, 48]          [-1, 64, 48, 48]          --                        --                        --
|    |    |    |    |    └─Conv2d: 6-139                     [-1, 64, 48, 48]          [-1, 64, 48, 48]          [64, 64, 3, 3]            36,928                    84,934,656
|    |    |    |    |    └─CALayer: 6-140                    [-1, 64, 48, 48]          [-1, 64, 48, 48]          --                        --                        --
|    |    |    |    |    |    └─AdaptiveAvgPool2d: 7-69      [-1, 64, 48, 48]          [-1, 64, 1, 1]            --                        --                        --
|    |    |    |    |    |    └─Sequential: 7-70             [-1, 64, 1, 1]            [-1, 64, 1, 1]            --                        --                        --
|    |    |    |    |    |    |    └─Conv2d: 8-137           [-1, 64, 1, 1]            [-1, 4, 1, 1]             [64, 4, 1, 1]             260                       256
|    |    |    |    |    |    |    └─ReLU: 8-138             [-1, 4, 1, 1]             [-1, 4, 1, 1]             --                        --                        --
|    |    |    |    |    |    |    └─Conv2d: 8-139           [-1, 4, 1, 1]             [-1, 64, 1, 1]            [4, 64, 1, 1]             320                       256
|    |    |    |    |    |    |    └─Sigmoid: 8-140          [-1, 64, 1, 1]            [-1, 64, 1, 1]            --                        --                        --
|    |    |    └─RCAB: 4-37                                  [-1, 64, 48, 48]          [-1, 64, 48, 48]          --                        --                        --
|    |    |    |    └─Sequential: 5-36                       [-1, 64, 48, 48]          [-1, 64, 48, 48]          --                        --                        --
|    |    |    |    |    └─Conv2d: 6-141                     [-1, 64, 48, 48]          [-1, 64, 48, 48]          [64, 64, 3, 3]            36,928                    84,934,656
|    |    |    |    |    └─ReLU: 6-142                       [-1, 64, 48, 48]          [-1, 64, 48, 48]          --                        --                        --
|    |    |    |    |    └─Conv2d: 6-143                     [-1, 64, 48, 48]          [-1, 64, 48, 48]          [64, 64, 3, 3]            36,928                    84,934,656
|    |    |    |    |    └─CALayer: 6-144                    [-1, 64, 48, 48]          [-1, 64, 48, 48]          --                        --                        --
|    |    |    |    |    |    └─AdaptiveAvgPool2d: 7-71      [-1, 64, 48, 48]          [-1, 64, 1, 1]            --                        --                        --
|    |    |    |    |    |    └─Sequential: 7-72             [-1, 64, 1, 1]            [-1, 64, 1, 1]            --                        --                        --
|    |    |    |    |    |    |    └─Conv2d: 8-141           [-1, 64, 1, 1]            [-1, 4, 1, 1]             [64, 4, 1, 1]             260                       256
|    |    |    |    |    |    |    └─ReLU: 8-142             [-1, 4, 1, 1]             [-1, 4, 1, 1]             --                        --                        --
|    |    |    |    |    |    |    └─Conv2d: 8-143           [-1, 4, 1, 1]             [-1, 64, 1, 1]            [4, 64, 1, 1]             320                       256
|    |    |    |    |    |    |    └─Sigmoid: 8-144          [-1, 64, 1, 1]            [-1, 64, 1, 1]            --                        --                        --
|    |    |    └─RCAB: 4-38                                  [-1, 64, 48, 48]          [-1, 64, 48, 48]          --                        --                        --
|    |    |    |    └─Sequential: 5-37                       [-1, 64, 48, 48]          [-1, 64, 48, 48]          --                        --                        --
|    |    |    |    |    └─Conv2d: 6-145                     [-1, 64, 48, 48]          [-1, 64, 48, 48]          [64, 64, 3, 3]            36,928                    84,934,656
|    |    |    |    |    └─ReLU: 6-146                       [-1, 64, 48, 48]          [-1, 64, 48, 48]          --                        --                        --
|    |    |    |    |    └─Conv2d: 6-147                     [-1, 64, 48, 48]          [-1, 64, 48, 48]          [64, 64, 3, 3]            36,928                    84,934,656
|    |    |    |    |    └─CALayer: 6-148                    [-1, 64, 48, 48]          [-1, 64, 48, 48]          --                        --                        --
|    |    |    |    |    |    └─AdaptiveAvgPool2d: 7-73      [-1, 64, 48, 48]          [-1, 64, 1, 1]            --                        --                        --
|    |    |    |    |    |    └─Sequential: 7-74             [-1, 64, 1, 1]            [-1, 64, 1, 1]            --                        --                        --
|    |    |    |    |    |    |    └─Conv2d: 8-145           [-1, 64, 1, 1]            [-1, 4, 1, 1]             [64, 4, 1, 1]             260                       256
|    |    |    |    |    |    |    └─ReLU: 8-146             [-1, 4, 1, 1]             [-1, 4, 1, 1]             --                        --                        --
|    |    |    |    |    |    |    └─Conv2d: 8-147           [-1, 4, 1, 1]             [-1, 64, 1, 1]            [4, 64, 1, 1]             320                       256
|    |    |    |    |    |    |    └─Sigmoid: 8-148          [-1, 64, 1, 1]            [-1, 64, 1, 1]            --                        --                        --
|    |    |    └─RCAB: 4-39                                  [-1, 64, 48, 48]          [-1, 64, 48, 48]          --                        --                        --
|    |    |    |    └─Sequential: 5-38                       [-1, 64, 48, 48]          [-1, 64, 48, 48]          --                        --                        --
|    |    |    |    |    └─Conv2d: 6-149                     [-1, 64, 48, 48]          [-1, 64, 48, 48]          [64, 64, 3, 3]            36,928                    84,934,656
|    |    |    |    |    └─ReLU: 6-150                       [-1, 64, 48, 48]          [-1, 64, 48, 48]          --                        --                        --
|    |    |    |    |    └─Conv2d: 6-151                     [-1, 64, 48, 48]          [-1, 64, 48, 48]          [64, 64, 3, 3]            36,928                    84,934,656
|    |    |    |    |    └─CALayer: 6-152                    [-1, 64, 48, 48]          [-1, 64, 48, 48]          --                        --                        --
|    |    |    |    |    |    └─AdaptiveAvgPool2d: 7-75      [-1, 64, 48, 48]          [-1, 64, 1, 1]            --                        --                        --
|    |    |    |    |    |    └─Sequential: 7-76             [-1, 64, 1, 1]            [-1, 64, 1, 1]            --                        --                        --
|    |    |    |    |    |    |    └─Conv2d: 8-149           [-1, 64, 1, 1]            [-1, 4, 1, 1]             [64, 4, 1, 1]             260                       256
|    |    |    |    |    |    |    └─ReLU: 8-150             [-1, 4, 1, 1]             [-1, 4, 1, 1]             --                        --                        --
|    |    |    |    |    |    |    └─Conv2d: 8-151           [-1, 4, 1, 1]             [-1, 64, 1, 1]            [4, 64, 1, 1]             320                       256
|    |    |    |    |    |    |    └─Sigmoid: 8-152          [-1, 64, 1, 1]            [-1, 64, 1, 1]            --                        --                        --
|    |    |    └─RCAB: 4-40                                  [-1, 64, 48, 48]          [-1, 64, 48, 48]          --                        --                        --
|    |    |    |    └─Sequential: 5-39                       [-1, 64, 48, 48]          [-1, 64, 48, 48]          --                        --                        --
|    |    |    |    |    └─Conv2d: 6-153                     [-1, 64, 48, 48]          [-1, 64, 48, 48]          [64, 64, 3, 3]            36,928                    84,934,656
|    |    |    |    |    └─ReLU: 6-154                       [-1, 64, 48, 48]          [-1, 64, 48, 48]          --                        --                        --
|    |    |    |    |    └─Conv2d: 6-155                     [-1, 64, 48, 48]          [-1, 64, 48, 48]          [64, 64, 3, 3]            36,928                    84,934,656
|    |    |    |    |    └─CALayer: 6-156                    [-1, 64, 48, 48]          [-1, 64, 48, 48]          --                        --                        --
|    |    |    |    |    |    └─AdaptiveAvgPool2d: 7-77      [-1, 64, 48, 48]          [-1, 64, 1, 1]            --                        --                        --
|    |    |    |    |    |    └─Sequential: 7-78             [-1, 64, 1, 1]            [-1, 64, 1, 1]            --                        --                        --
|    |    |    |    |    |    |    └─Conv2d: 8-153           [-1, 64, 1, 1]            [-1, 4, 1, 1]             [64, 4, 1, 1]             260                       256
|    |    |    |    |    |    |    └─ReLU: 8-154             [-1, 4, 1, 1]             [-1, 4, 1, 1]             --                        --                        --
|    |    |    |    |    |    |    └─Conv2d: 8-155           [-1, 4, 1, 1]             [-1, 64, 1, 1]            [4, 64, 1, 1]             320                       256
|    |    |    |    |    |    |    └─Sigmoid: 8-156          [-1, 64, 1, 1]            [-1, 64, 1, 1]            --                        --                        --
|    |    |    └─RCAB: 4-41                                  [-1, 64, 48, 48]          [-1, 64, 48, 48]          --                        --                        --
|    |    |    |    └─Sequential: 5-40                       [-1, 64, 48, 48]          [-1, 64, 48, 48]          --                        --                        --
|    |    |    |    |    └─Conv2d: 6-157                     [-1, 64, 48, 48]          [-1, 64, 48, 48]          [64, 64, 3, 3]            36,928                    84,934,656
|    |    |    |    |    └─ReLU: 6-158                       [-1, 64, 48, 48]          [-1, 64, 48, 48]          --                        --                        --
|    |    |    |    |    └─Conv2d: 6-159                     [-1, 64, 48, 48]          [-1, 64, 48, 48]          [64, 64, 3, 3]            36,928                    84,934,656
|    |    |    |    |    └─CALayer: 6-160                    [-1, 64, 48, 48]          [-1, 64, 48, 48]          --                        --                        --
|    |    |    |    |    |    └─AdaptiveAvgPool2d: 7-79      [-1, 64, 48, 48]          [-1, 64, 1, 1]            --                        --                        --
|    |    |    |    |    |    └─Sequential: 7-80             [-1, 64, 1, 1]            [-1, 64, 1, 1]            --                        --                        --
|    |    |    |    |    |    |    └─Conv2d: 8-157           [-1, 64, 1, 1]            [-1, 4, 1, 1]             [64, 4, 1, 1]             260                       256
|    |    |    |    |    |    |    └─ReLU: 8-158             [-1, 4, 1, 1]             [-1, 4, 1, 1]             --                        --                        --
|    |    |    |    |    |    |    └─Conv2d: 8-159           [-1, 4, 1, 1]             [-1, 64, 1, 1]            [4, 64, 1, 1]             320                       256
|    |    |    |    |    |    |    └─Sigmoid: 8-160          [-1, 64, 1, 1]            [-1, 64, 1, 1]            --                        --                        --
|    |    |    └─Conv2d: 4-42                                [-1, 64, 48, 48]          [-1, 64, 48, 48]          [64, 64, 3, 3]            36,928                    84,934,656
|    └─ResidualGroup: 2-4                                    [-1, 64, 48, 48]          [-1, 64, 48, 48]          --                        --                        --
|    |    └─Sequential: 3-3                                  [-1, 64, 48, 48]          [-1, 64, 48, 48]          --                        --                        --
|    |    |    └─RCAB: 4-43                                  [-1, 64, 48, 48]          [-1, 64, 48, 48]          --                        --                        --
|    |    |    |    └─Sequential: 5-41                       [-1, 64, 48, 48]          [-1, 64, 48, 48]          --                        --                        --
|    |    |    |    |    └─Conv2d: 6-161                     [-1, 64, 48, 48]          [-1, 64, 48, 48]          [64, 64, 3, 3]            36,928                    84,934,656
|    |    |    |    |    └─ReLU: 6-162                       [-1, 64, 48, 48]          [-1, 64, 48, 48]          --                        --                        --
|    |    |    |    |    └─Conv2d: 6-163                     [-1, 64, 48, 48]          [-1, 64, 48, 48]          [64, 64, 3, 3]            36,928                    84,934,656
|    |    |    |    |    └─CALayer: 6-164                    [-1, 64, 48, 48]          [-1, 64, 48, 48]          --                        --                        --
|    |    |    |    |    |    └─AdaptiveAvgPool2d: 7-81      [-1, 64, 48, 48]          [-1, 64, 1, 1]            --                        --                        --
|    |    |    |    |    |    └─Sequential: 7-82             [-1, 64, 1, 1]            [-1, 64, 1, 1]            --                        --                        --
|    |    |    |    |    |    |    └─Conv2d: 8-161           [-1, 64, 1, 1]            [-1, 4, 1, 1]             [64, 4, 1, 1]             260                       256
|    |    |    |    |    |    |    └─ReLU: 8-162             [-1, 4, 1, 1]             [-1, 4, 1, 1]             --                        --                        --
|    |    |    |    |    |    |    └─Conv2d: 8-163           [-1, 4, 1, 1]             [-1, 64, 1, 1]            [4, 64, 1, 1]             320                       256
|    |    |    |    |    |    |    └─Sigmoid: 8-164          [-1, 64, 1, 1]            [-1, 64, 1, 1]            --                        --                        --
|    |    |    └─RCAB: 4-44                                  [-1, 64, 48, 48]          [-1, 64, 48, 48]          --                        --                        --
|    |    |    |    └─Sequential: 5-42                       [-1, 64, 48, 48]          [-1, 64, 48, 48]          --                        --                        --
|    |    |    |    |    └─Conv2d: 6-165                     [-1, 64, 48, 48]          [-1, 64, 48, 48]          [64, 64, 3, 3]            36,928                    84,934,656
|    |    |    |    |    └─ReLU: 6-166                       [-1, 64, 48, 48]          [-1, 64, 48, 48]          --                        --                        --
|    |    |    |    |    └─Conv2d: 6-167                     [-1, 64, 48, 48]          [-1, 64, 48, 48]          [64, 64, 3, 3]            36,928                    84,934,656
|    |    |    |    |    └─CALayer: 6-168                    [-1, 64, 48, 48]          [-1, 64, 48, 48]          --                        --                        --
|    |    |    |    |    |    └─AdaptiveAvgPool2d: 7-83      [-1, 64, 48, 48]          [-1, 64, 1, 1]            --                        --                        --
|    |    |    |    |    |    └─Sequential: 7-84             [-1, 64, 1, 1]            [-1, 64, 1, 1]            --                        --                        --
|    |    |    |    |    |    |    └─Conv2d: 8-165           [-1, 64, 1, 1]            [-1, 4, 1, 1]             [64, 4, 1, 1]             260                       256
|    |    |    |    |    |    |    └─ReLU: 8-166             [-1, 4, 1, 1]             [-1, 4, 1, 1]             --                        --                        --
|    |    |    |    |    |    |    └─Conv2d: 8-167           [-1, 4, 1, 1]             [-1, 64, 1, 1]            [4, 64, 1, 1]             320                       256
|    |    |    |    |    |    |    └─Sigmoid: 8-168          [-1, 64, 1, 1]            [-1, 64, 1, 1]            --                        --                        --
|    |    |    └─RCAB: 4-45                                  [-1, 64, 48, 48]          [-1, 64, 48, 48]          --                        --                        --
|    |    |    |    └─Sequential: 5-43                       [-1, 64, 48, 48]          [-1, 64, 48, 48]          --                        --                        --
|    |    |    |    |    └─Conv2d: 6-169                     [-1, 64, 48, 48]          [-1, 64, 48, 48]          [64, 64, 3, 3]            36,928                    84,934,656
|    |    |    |    |    └─ReLU: 6-170                       [-1, 64, 48, 48]          [-1, 64, 48, 48]          --                        --                        --
|    |    |    |    |    └─Conv2d: 6-171                     [-1, 64, 48, 48]          [-1, 64, 48, 48]          [64, 64, 3, 3]            36,928                    84,934,656
|    |    |    |    |    └─CALayer: 6-172                    [-1, 64, 48, 48]          [-1, 64, 48, 48]          --                        --                        --
|    |    |    |    |    |    └─AdaptiveAvgPool2d: 7-85      [-1, 64, 48, 48]          [-1, 64, 1, 1]            --                        --                        --
|    |    |    |    |    |    └─Sequential: 7-86             [-1, 64, 1, 1]            [-1, 64, 1, 1]            --                        --                        --
|    |    |    |    |    |    |    └─Conv2d: 8-169           [-1, 64, 1, 1]            [-1, 4, 1, 1]             [64, 4, 1, 1]             260                       256
|    |    |    |    |    |    |    └─ReLU: 8-170             [-1, 4, 1, 1]             [-1, 4, 1, 1]             --                        --                        --
|    |    |    |    |    |    |    └─Conv2d: 8-171           [-1, 4, 1, 1]             [-1, 64, 1, 1]            [4, 64, 1, 1]             320                       256
|    |    |    |    |    |    |    └─Sigmoid: 8-172          [-1, 64, 1, 1]            [-1, 64, 1, 1]            --                        --                        --
|    |    |    └─RCAB: 4-46                                  [-1, 64, 48, 48]          [-1, 64, 48, 48]          --                        --                        --
|    |    |    |    └─Sequential: 5-44                       [-1, 64, 48, 48]          [-1, 64, 48, 48]          --                        --                        --
|    |    |    |    |    └─Conv2d: 6-173                     [-1, 64, 48, 48]          [-1, 64, 48, 48]          [64, 64, 3, 3]            36,928                    84,934,656
|    |    |    |    |    └─ReLU: 6-174                       [-1, 64, 48, 48]          [-1, 64, 48, 48]          --                        --                        --
|    |    |    |    |    └─Conv2d: 6-175                     [-1, 64, 48, 48]          [-1, 64, 48, 48]          [64, 64, 3, 3]            36,928                    84,934,656
|    |    |    |    |    └─CALayer: 6-176                    [-1, 64, 48, 48]          [-1, 64, 48, 48]          --                        --                        --
|    |    |    |    |    |    └─AdaptiveAvgPool2d: 7-87      [-1, 64, 48, 48]          [-1, 64, 1, 1]            --                        --                        --
|    |    |    |    |    |    └─Sequential: 7-88             [-1, 64, 1, 1]            [-1, 64, 1, 1]            --                        --                        --
|    |    |    |    |    |    |    └─Conv2d: 8-173           [-1, 64, 1, 1]            [-1, 4, 1, 1]             [64, 4, 1, 1]             260                       256
|    |    |    |    |    |    |    └─ReLU: 8-174             [-1, 4, 1, 1]             [-1, 4, 1, 1]             --                        --                        --
|    |    |    |    |    |    |    └─Conv2d: 8-175           [-1, 4, 1, 1]             [-1, 64, 1, 1]            [4, 64, 1, 1]             320                       256
|    |    |    |    |    |    |    └─Sigmoid: 8-176          [-1, 64, 1, 1]            [-1, 64, 1, 1]            --                        --                        --
|    |    |    └─RCAB: 4-47                                  [-1, 64, 48, 48]          [-1, 64, 48, 48]          --                        --                        --
|    |    |    |    └─Sequential: 5-45                       [-1, 64, 48, 48]          [-1, 64, 48, 48]          --                        --                        --
|    |    |    |    |    └─Conv2d: 6-177                     [-1, 64, 48, 48]          [-1, 64, 48, 48]          [64, 64, 3, 3]            36,928                    84,934,656
|    |    |    |    |    └─ReLU: 6-178                       [-1, 64, 48, 48]          [-1, 64, 48, 48]          --                        --                        --
|    |    |    |    |    └─Conv2d: 6-179                     [-1, 64, 48, 48]          [-1, 64, 48, 48]          [64, 64, 3, 3]            36,928                    84,934,656
|    |    |    |    |    └─CALayer: 6-180                    [-1, 64, 48, 48]          [-1, 64, 48, 48]          --                        --                        --
|    |    |    |    |    |    └─AdaptiveAvgPool2d: 7-89      [-1, 64, 48, 48]          [-1, 64, 1, 1]            --                        --                        --
|    |    |    |    |    |    └─Sequential: 7-90             [-1, 64, 1, 1]            [-1, 64, 1, 1]            --                        --                        --
|    |    |    |    |    |    |    └─Conv2d: 8-177           [-1, 64, 1, 1]            [-1, 4, 1, 1]             [64, 4, 1, 1]             260                       256
|    |    |    |    |    |    |    └─ReLU: 8-178             [-1, 4, 1, 1]             [-1, 4, 1, 1]             --                        --                        --
|    |    |    |    |    |    |    └─Conv2d: 8-179           [-1, 4, 1, 1]             [-1, 64, 1, 1]            [4, 64, 1, 1]             320                       256
|    |    |    |    |    |    |    └─Sigmoid: 8-180          [-1, 64, 1, 1]            [-1, 64, 1, 1]            --                        --                        --
|    |    |    └─RCAB: 4-48                                  [-1, 64, 48, 48]          [-1, 64, 48, 48]          --                        --                        --
|    |    |    |    └─Sequential: 5-46                       [-1, 64, 48, 48]          [-1, 64, 48, 48]          --                        --                        --
|    |    |    |    |    └─Conv2d: 6-181                     [-1, 64, 48, 48]          [-1, 64, 48, 48]          [64, 64, 3, 3]            36,928                    84,934,656
|    |    |    |    |    └─ReLU: 6-182                       [-1, 64, 48, 48]          [-1, 64, 48, 48]          --                        --                        --
|    |    |    |    |    └─Conv2d: 6-183                     [-1, 64, 48, 48]          [-1, 64, 48, 48]          [64, 64, 3, 3]            36,928                    84,934,656
|    |    |    |    |    └─CALayer: 6-184                    [-1, 64, 48, 48]          [-1, 64, 48, 48]          --                        --                        --
|    |    |    |    |    |    └─AdaptiveAvgPool2d: 7-91      [-1, 64, 48, 48]          [-1, 64, 1, 1]            --                        --                        --
|    |    |    |    |    |    └─Sequential: 7-92             [-1, 64, 1, 1]            [-1, 64, 1, 1]            --                        --                        --
|    |    |    |    |    |    |    └─Conv2d: 8-181           [-1, 64, 1, 1]            [-1, 4, 1, 1]             [64, 4, 1, 1]             260                       256
|    |    |    |    |    |    |    └─ReLU: 8-182             [-1, 4, 1, 1]             [-1, 4, 1, 1]             --                        --                        --
|    |    |    |    |    |    |    └─Conv2d: 8-183           [-1, 4, 1, 1]             [-1, 64, 1, 1]            [4, 64, 1, 1]             320                       256
|    |    |    |    |    |    |    └─Sigmoid: 8-184          [-1, 64, 1, 1]            [-1, 64, 1, 1]            --                        --                        --
|    |    |    └─RCAB: 4-49                                  [-1, 64, 48, 48]          [-1, 64, 48, 48]          --                        --                        --
|    |    |    |    └─Sequential: 5-47                       [-1, 64, 48, 48]          [-1, 64, 48, 48]          --                        --                        --
|    |    |    |    |    └─Conv2d: 6-185                     [-1, 64, 48, 48]          [-1, 64, 48, 48]          [64, 64, 3, 3]            36,928                    84,934,656
|    |    |    |    |    └─ReLU: 6-186                       [-1, 64, 48, 48]          [-1, 64, 48, 48]          --                        --                        --
|    |    |    |    |    └─Conv2d: 6-187                     [-1, 64, 48, 48]          [-1, 64, 48, 48]          [64, 64, 3, 3]            36,928                    84,934,656
|    |    |    |    |    └─CALayer: 6-188                    [-1, 64, 48, 48]          [-1, 64, 48, 48]          --                        --                        --
|    |    |    |    |    |    └─AdaptiveAvgPool2d: 7-93      [-1, 64, 48, 48]          [-1, 64, 1, 1]            --                        --                        --
|    |    |    |    |    |    └─Sequential: 7-94             [-1, 64, 1, 1]            [-1, 64, 1, 1]            --                        --                        --
|    |    |    |    |    |    |    └─Conv2d: 8-185           [-1, 64, 1, 1]            [-1, 4, 1, 1]             [64, 4, 1, 1]             260                       256
|    |    |    |    |    |    |    └─ReLU: 8-186             [-1, 4, 1, 1]             [-1, 4, 1, 1]             --                        --                        --
|    |    |    |    |    |    |    └─Conv2d: 8-187           [-1, 4, 1, 1]             [-1, 64, 1, 1]            [4, 64, 1, 1]             320                       256
|    |    |    |    |    |    |    └─Sigmoid: 8-188          [-1, 64, 1, 1]            [-1, 64, 1, 1]            --                        --                        --
|    |    |    └─RCAB: 4-50                                  [-1, 64, 48, 48]          [-1, 64, 48, 48]          --                        --                        --
|    |    |    |    └─Sequential: 5-48                       [-1, 64, 48, 48]          [-1, 64, 48, 48]          --                        --                        --
|    |    |    |    |    └─Conv2d: 6-189                     [-1, 64, 48, 48]          [-1, 64, 48, 48]          [64, 64, 3, 3]            36,928                    84,934,656
|    |    |    |    |    └─ReLU: 6-190                       [-1, 64, 48, 48]          [-1, 64, 48, 48]          --                        --                        --
|    |    |    |    |    └─Conv2d: 6-191                     [-1, 64, 48, 48]          [-1, 64, 48, 48]          [64, 64, 3, 3]            36,928                    84,934,656
|    |    |    |    |    └─CALayer: 6-192                    [-1, 64, 48, 48]          [-1, 64, 48, 48]          --                        --                        --
|    |    |    |    |    |    └─AdaptiveAvgPool2d: 7-95      [-1, 64, 48, 48]          [-1, 64, 1, 1]            --                        --                        --
|    |    |    |    |    |    └─Sequential: 7-96             [-1, 64, 1, 1]            [-1, 64, 1, 1]            --                        --                        --
|    |    |    |    |    |    |    └─Conv2d: 8-189           [-1, 64, 1, 1]            [-1, 4, 1, 1]             [64, 4, 1, 1]             260                       256
|    |    |    |    |    |    |    └─ReLU: 8-190             [-1, 4, 1, 1]             [-1, 4, 1, 1]             --                        --                        --
|    |    |    |    |    |    |    └─Conv2d: 8-191           [-1, 4, 1, 1]             [-1, 64, 1, 1]            [4, 64, 1, 1]             320                       256
|    |    |    |    |    |    |    └─Sigmoid: 8-192          [-1, 64, 1, 1]            [-1, 64, 1, 1]            --                        --                        --
|    |    |    └─RCAB: 4-51                                  [-1, 64, 48, 48]          [-1, 64, 48, 48]          --                        --                        --
|    |    |    |    └─Sequential: 5-49                       [-1, 64, 48, 48]          [-1, 64, 48, 48]          --                        --                        --
|    |    |    |    |    └─Conv2d: 6-193                     [-1, 64, 48, 48]          [-1, 64, 48, 48]          [64, 64, 3, 3]            36,928                    84,934,656
|    |    |    |    |    └─ReLU: 6-194                       [-1, 64, 48, 48]          [-1, 64, 48, 48]          --                        --                        --
|    |    |    |    |    └─Conv2d: 6-195                     [-1, 64, 48, 48]          [-1, 64, 48, 48]          [64, 64, 3, 3]            36,928                    84,934,656
|    |    |    |    |    └─CALayer: 6-196                    [-1, 64, 48, 48]          [-1, 64, 48, 48]          --                        --                        --
|    |    |    |    |    |    └─AdaptiveAvgPool2d: 7-97      [-1, 64, 48, 48]          [-1, 64, 1, 1]            --                        --                        --
|    |    |    |    |    |    └─Sequential: 7-98             [-1, 64, 1, 1]            [-1, 64, 1, 1]            --                        --                        --
|    |    |    |    |    |    |    └─Conv2d: 8-193           [-1, 64, 1, 1]            [-1, 4, 1, 1]             [64, 4, 1, 1]             260                       256
|    |    |    |    |    |    |    └─ReLU: 8-194             [-1, 4, 1, 1]             [-1, 4, 1, 1]             --                        --                        --
|    |    |    |    |    |    |    └─Conv2d: 8-195           [-1, 4, 1, 1]             [-1, 64, 1, 1]            [4, 64, 1, 1]             320                       256
|    |    |    |    |    |    |    └─Sigmoid: 8-196          [-1, 64, 1, 1]            [-1, 64, 1, 1]            --                        --                        --
|    |    |    └─RCAB: 4-52                                  [-1, 64, 48, 48]          [-1, 64, 48, 48]          --                        --                        --
|    |    |    |    └─Sequential: 5-50                       [-1, 64, 48, 48]          [-1, 64, 48, 48]          --                        --                        --
|    |    |    |    |    └─Conv2d: 6-197                     [-1, 64, 48, 48]          [-1, 64, 48, 48]          [64, 64, 3, 3]            36,928                    84,934,656
|    |    |    |    |    └─ReLU: 6-198                       [-1, 64, 48, 48]          [-1, 64, 48, 48]          --                        --                        --
|    |    |    |    |    └─Conv2d: 6-199                     [-1, 64, 48, 48]          [-1, 64, 48, 48]          [64, 64, 3, 3]            36,928                    84,934,656
|    |    |    |    |    └─CALayer: 6-200                    [-1, 64, 48, 48]          [-1, 64, 48, 48]          --                        --                        --
|    |    |    |    |    |    └─AdaptiveAvgPool2d: 7-99      [-1, 64, 48, 48]          [-1, 64, 1, 1]            --                        --                        --
|    |    |    |    |    |    └─Sequential: 7-100            [-1, 64, 1, 1]            [-1, 64, 1, 1]            --                        --                        --
|    |    |    |    |    |    |    └─Conv2d: 8-197           [-1, 64, 1, 1]            [-1, 4, 1, 1]             [64, 4, 1, 1]             260                       256
|    |    |    |    |    |    |    └─ReLU: 8-198             [-1, 4, 1, 1]             [-1, 4, 1, 1]             --                        --                        --
|    |    |    |    |    |    |    └─Conv2d: 8-199           [-1, 4, 1, 1]             [-1, 64, 1, 1]            [4, 64, 1, 1]             320                       256
|    |    |    |    |    |    |    └─Sigmoid: 8-200          [-1, 64, 1, 1]            [-1, 64, 1, 1]            --                        --                        --
|    |    |    └─RCAB: 4-53                                  [-1, 64, 48, 48]          [-1, 64, 48, 48]          --                        --                        --
|    |    |    |    └─Sequential: 5-51                       [-1, 64, 48, 48]          [-1, 64, 48, 48]          --                        --                        --
|    |    |    |    |    └─Conv2d: 6-201                     [-1, 64, 48, 48]          [-1, 64, 48, 48]          [64, 64, 3, 3]            36,928                    84,934,656
|    |    |    |    |    └─ReLU: 6-202                       [-1, 64, 48, 48]          [-1, 64, 48, 48]          --                        --                        --
|    |    |    |    |    └─Conv2d: 6-203                     [-1, 64, 48, 48]          [-1, 64, 48, 48]          [64, 64, 3, 3]            36,928                    84,934,656
|    |    |    |    |    └─CALayer: 6-204                    [-1, 64, 48, 48]          [-1, 64, 48, 48]          --                        --                        --
|    |    |    |    |    |    └─AdaptiveAvgPool2d: 7-101     [-1, 64, 48, 48]          [-1, 64, 1, 1]            --                        --                        --
|    |    |    |    |    |    └─Sequential: 7-102            [-1, 64, 1, 1]            [-1, 64, 1, 1]            --                        --                        --
|    |    |    |    |    |    |    └─Conv2d: 8-201           [-1, 64, 1, 1]            [-1, 4, 1, 1]             [64, 4, 1, 1]             260                       256
|    |    |    |    |    |    |    └─ReLU: 8-202             [-1, 4, 1, 1]             [-1, 4, 1, 1]             --                        --                        --
|    |    |    |    |    |    |    └─Conv2d: 8-203           [-1, 4, 1, 1]             [-1, 64, 1, 1]            [4, 64, 1, 1]             320                       256
|    |    |    |    |    |    |    └─Sigmoid: 8-204          [-1, 64, 1, 1]            [-1, 64, 1, 1]            --                        --                        --
|    |    |    └─RCAB: 4-54                                  [-1, 64, 48, 48]          [-1, 64, 48, 48]          --                        --                        --
|    |    |    |    └─Sequential: 5-52                       [-1, 64, 48, 48]          [-1, 64, 48, 48]          --                        --                        --
|    |    |    |    |    └─Conv2d: 6-205                     [-1, 64, 48, 48]          [-1, 64, 48, 48]          [64, 64, 3, 3]            36,928                    84,934,656
|    |    |    |    |    └─ReLU: 6-206                       [-1, 64, 48, 48]          [-1, 64, 48, 48]          --                        --                        --
|    |    |    |    |    └─Conv2d: 6-207                     [-1, 64, 48, 48]          [-1, 64, 48, 48]          [64, 64, 3, 3]            36,928                    84,934,656
|    |    |    |    |    └─CALayer: 6-208                    [-1, 64, 48, 48]          [-1, 64, 48, 48]          --                        --                        --
|    |    |    |    |    |    └─AdaptiveAvgPool2d: 7-103     [-1, 64, 48, 48]          [-1, 64, 1, 1]            --                        --                        --
|    |    |    |    |    |    └─Sequential: 7-104            [-1, 64, 1, 1]            [-1, 64, 1, 1]            --                        --                        --
|    |    |    |    |    |    |    └─Conv2d: 8-205           [-1, 64, 1, 1]            [-1, 4, 1, 1]             [64, 4, 1, 1]             260                       256
|    |    |    |    |    |    |    └─ReLU: 8-206             [-1, 4, 1, 1]             [-1, 4, 1, 1]             --                        --                        --
|    |    |    |    |    |    |    └─Conv2d: 8-207           [-1, 4, 1, 1]             [-1, 64, 1, 1]            [4, 64, 1, 1]             320                       256
|    |    |    |    |    |    |    └─Sigmoid: 8-208          [-1, 64, 1, 1]            [-1, 64, 1, 1]            --                        --                        --
|    |    |    └─RCAB: 4-55                                  [-1, 64, 48, 48]          [-1, 64, 48, 48]          --                        --                        --
|    |    |    |    └─Sequential: 5-53                       [-1, 64, 48, 48]          [-1, 64, 48, 48]          --                        --                        --
|    |    |    |    |    └─Conv2d: 6-209                     [-1, 64, 48, 48]          [-1, 64, 48, 48]          [64, 64, 3, 3]            36,928                    84,934,656
|    |    |    |    |    └─ReLU: 6-210                       [-1, 64, 48, 48]          [-1, 64, 48, 48]          --                        --                        --
|    |    |    |    |    └─Conv2d: 6-211                     [-1, 64, 48, 48]          [-1, 64, 48, 48]          [64, 64, 3, 3]            36,928                    84,934,656
|    |    |    |    |    └─CALayer: 6-212                    [-1, 64, 48, 48]          [-1, 64, 48, 48]          --                        --                        --
|    |    |    |    |    |    └─AdaptiveAvgPool2d: 7-105     [-1, 64, 48, 48]          [-1, 64, 1, 1]            --                        --                        --
|    |    |    |    |    |    └─Sequential: 7-106            [-1, 64, 1, 1]            [-1, 64, 1, 1]            --                        --                        --
|    |    |    |    |    |    |    └─Conv2d: 8-209           [-1, 64, 1, 1]            [-1, 4, 1, 1]             [64, 4, 1, 1]             260                       256
|    |    |    |    |    |    |    └─ReLU: 8-210             [-1, 4, 1, 1]             [-1, 4, 1, 1]             --                        --                        --
|    |    |    |    |    |    |    └─Conv2d: 8-211           [-1, 4, 1, 1]             [-1, 64, 1, 1]            [4, 64, 1, 1]             320                       256
|    |    |    |    |    |    |    └─Sigmoid: 8-212          [-1, 64, 1, 1]            [-1, 64, 1, 1]            --                        --                        --
|    |    |    └─RCAB: 4-56                                  [-1, 64, 48, 48]          [-1, 64, 48, 48]          --                        --                        --
|    |    |    |    └─Sequential: 5-54                       [-1, 64, 48, 48]          [-1, 64, 48, 48]          --                        --                        --
|    |    |    |    |    └─Conv2d: 6-213                     [-1, 64, 48, 48]          [-1, 64, 48, 48]          [64, 64, 3, 3]            36,928                    84,934,656
|    |    |    |    |    └─ReLU: 6-214                       [-1, 64, 48, 48]          [-1, 64, 48, 48]          --                        --                        --
|    |    |    |    |    └─Conv2d: 6-215                     [-1, 64, 48, 48]          [-1, 64, 48, 48]          [64, 64, 3, 3]            36,928                    84,934,656
|    |    |    |    |    └─CALayer: 6-216                    [-1, 64, 48, 48]          [-1, 64, 48, 48]          --                        --                        --
|    |    |    |    |    |    └─AdaptiveAvgPool2d: 7-107     [-1, 64, 48, 48]          [-1, 64, 1, 1]            --                        --                        --
|    |    |    |    |    |    └─Sequential: 7-108            [-1, 64, 1, 1]            [-1, 64, 1, 1]            --                        --                        --
|    |    |    |    |    |    |    └─Conv2d: 8-213           [-1, 64, 1, 1]            [-1, 4, 1, 1]             [64, 4, 1, 1]             260                       256
|    |    |    |    |    |    |    └─ReLU: 8-214             [-1, 4, 1, 1]             [-1, 4, 1, 1]             --                        --                        --
|    |    |    |    |    |    |    └─Conv2d: 8-215           [-1, 4, 1, 1]             [-1, 64, 1, 1]            [4, 64, 1, 1]             320                       256
|    |    |    |    |    |    |    └─Sigmoid: 8-216          [-1, 64, 1, 1]            [-1, 64, 1, 1]            --                        --                        --
|    |    |    └─RCAB: 4-57                                  [-1, 64, 48, 48]          [-1, 64, 48, 48]          --                        --                        --
|    |    |    |    └─Sequential: 5-55                       [-1, 64, 48, 48]          [-1, 64, 48, 48]          --                        --                        --
|    |    |    |    |    └─Conv2d: 6-217                     [-1, 64, 48, 48]          [-1, 64, 48, 48]          [64, 64, 3, 3]            36,928                    84,934,656
|    |    |    |    |    └─ReLU: 6-218                       [-1, 64, 48, 48]          [-1, 64, 48, 48]          --                        --                        --
|    |    |    |    |    └─Conv2d: 6-219                     [-1, 64, 48, 48]          [-1, 64, 48, 48]          [64, 64, 3, 3]            36,928                    84,934,656
|    |    |    |    |    └─CALayer: 6-220                    [-1, 64, 48, 48]          [-1, 64, 48, 48]          --                        --                        --
|    |    |    |    |    |    └─AdaptiveAvgPool2d: 7-109     [-1, 64, 48, 48]          [-1, 64, 1, 1]            --                        --                        --
|    |    |    |    |    |    └─Sequential: 7-110            [-1, 64, 1, 1]            [-1, 64, 1, 1]            --                        --                        --
|    |    |    |    |    |    |    └─Conv2d: 8-217           [-1, 64, 1, 1]            [-1, 4, 1, 1]             [64, 4, 1, 1]             260                       256
|    |    |    |    |    |    |    └─ReLU: 8-218             [-1, 4, 1, 1]             [-1, 4, 1, 1]             --                        --                        --
|    |    |    |    |    |    |    └─Conv2d: 8-219           [-1, 4, 1, 1]             [-1, 64, 1, 1]            [4, 64, 1, 1]             320                       256
|    |    |    |    |    |    |    └─Sigmoid: 8-220          [-1, 64, 1, 1]            [-1, 64, 1, 1]            --                        --                        --
|    |    |    └─RCAB: 4-58                                  [-1, 64, 48, 48]          [-1, 64, 48, 48]          --                        --                        --
|    |    |    |    └─Sequential: 5-56                       [-1, 64, 48, 48]          [-1, 64, 48, 48]          --                        --                        --
|    |    |    |    |    └─Conv2d: 6-221                     [-1, 64, 48, 48]          [-1, 64, 48, 48]          [64, 64, 3, 3]            36,928                    84,934,656
|    |    |    |    |    └─ReLU: 6-222                       [-1, 64, 48, 48]          [-1, 64, 48, 48]          --                        --                        --
|    |    |    |    |    └─Conv2d: 6-223                     [-1, 64, 48, 48]          [-1, 64, 48, 48]          [64, 64, 3, 3]            36,928                    84,934,656
|    |    |    |    |    └─CALayer: 6-224                    [-1, 64, 48, 48]          [-1, 64, 48, 48]          --                        --                        --
|    |    |    |    |    |    └─AdaptiveAvgPool2d: 7-111     [-1, 64, 48, 48]          [-1, 64, 1, 1]            --                        --                        --
|    |    |    |    |    |    └─Sequential: 7-112            [-1, 64, 1, 1]            [-1, 64, 1, 1]            --                        --                        --
|    |    |    |    |    |    |    └─Conv2d: 8-221           [-1, 64, 1, 1]            [-1, 4, 1, 1]             [64, 4, 1, 1]             260                       256
|    |    |    |    |    |    |    └─ReLU: 8-222             [-1, 4, 1, 1]             [-1, 4, 1, 1]             --                        --                        --
|    |    |    |    |    |    |    └─Conv2d: 8-223           [-1, 4, 1, 1]             [-1, 64, 1, 1]            [4, 64, 1, 1]             320                       256
|    |    |    |    |    |    |    └─Sigmoid: 8-224          [-1, 64, 1, 1]            [-1, 64, 1, 1]            --                        --                        --
|    |    |    └─RCAB: 4-59                                  [-1, 64, 48, 48]          [-1, 64, 48, 48]          --                        --                        --
|    |    |    |    └─Sequential: 5-57                       [-1, 64, 48, 48]          [-1, 64, 48, 48]          --                        --                        --
|    |    |    |    |    └─Conv2d: 6-225                     [-1, 64, 48, 48]          [-1, 64, 48, 48]          [64, 64, 3, 3]            36,928                    84,934,656
|    |    |    |    |    └─ReLU: 6-226                       [-1, 64, 48, 48]          [-1, 64, 48, 48]          --                        --                        --
|    |    |    |    |    └─Conv2d: 6-227                     [-1, 64, 48, 48]          [-1, 64, 48, 48]          [64, 64, 3, 3]            36,928                    84,934,656
|    |    |    |    |    └─CALayer: 6-228                    [-1, 64, 48, 48]          [-1, 64, 48, 48]          --                        --                        --
|    |    |    |    |    |    └─AdaptiveAvgPool2d: 7-113     [-1, 64, 48, 48]          [-1, 64, 1, 1]            --                        --                        --
|    |    |    |    |    |    └─Sequential: 7-114            [-1, 64, 1, 1]            [-1, 64, 1, 1]            --                        --                        --
|    |    |    |    |    |    |    └─Conv2d: 8-225           [-1, 64, 1, 1]            [-1, 4, 1, 1]             [64, 4, 1, 1]             260                       256
|    |    |    |    |    |    |    └─ReLU: 8-226             [-1, 4, 1, 1]             [-1, 4, 1, 1]             --                        --                        --
|    |    |    |    |    |    |    └─Conv2d: 8-227           [-1, 4, 1, 1]             [-1, 64, 1, 1]            [4, 64, 1, 1]             320                       256
|    |    |    |    |    |    |    └─Sigmoid: 8-228          [-1, 64, 1, 1]            [-1, 64, 1, 1]            --                        --                        --
|    |    |    └─RCAB: 4-60                                  [-1, 64, 48, 48]          [-1, 64, 48, 48]          --                        --                        --
|    |    |    |    └─Sequential: 5-58                       [-1, 64, 48, 48]          [-1, 64, 48, 48]          --                        --                        --
|    |    |    |    |    └─Conv2d: 6-229                     [-1, 64, 48, 48]          [-1, 64, 48, 48]          [64, 64, 3, 3]            36,928                    84,934,656
|    |    |    |    |    └─ReLU: 6-230                       [-1, 64, 48, 48]          [-1, 64, 48, 48]          --                        --                        --
|    |    |    |    |    └─Conv2d: 6-231                     [-1, 64, 48, 48]          [-1, 64, 48, 48]          [64, 64, 3, 3]            36,928                    84,934,656
|    |    |    |    |    └─CALayer: 6-232                    [-1, 64, 48, 48]          [-1, 64, 48, 48]          --                        --                        --
|    |    |    |    |    |    └─AdaptiveAvgPool2d: 7-115     [-1, 64, 48, 48]          [-1, 64, 1, 1]            --                        --                        --
|    |    |    |    |    |    └─Sequential: 7-116            [-1, 64, 1, 1]            [-1, 64, 1, 1]            --                        --                        --
|    |    |    |    |    |    |    └─Conv2d: 8-229           [-1, 64, 1, 1]            [-1, 4, 1, 1]             [64, 4, 1, 1]             260                       256
|    |    |    |    |    |    |    └─ReLU: 8-230             [-1, 4, 1, 1]             [-1, 4, 1, 1]             --                        --                        --
|    |    |    |    |    |    |    └─Conv2d: 8-231           [-1, 4, 1, 1]             [-1, 64, 1, 1]            [4, 64, 1, 1]             320                       256
|    |    |    |    |    |    |    └─Sigmoid: 8-232          [-1, 64, 1, 1]            [-1, 64, 1, 1]            --                        --                        --
|    |    |    └─RCAB: 4-61                                  [-1, 64, 48, 48]          [-1, 64, 48, 48]          --                        --                        --
|    |    |    |    └─Sequential: 5-59                       [-1, 64, 48, 48]          [-1, 64, 48, 48]          --                        --                        --
|    |    |    |    |    └─Conv2d: 6-233                     [-1, 64, 48, 48]          [-1, 64, 48, 48]          [64, 64, 3, 3]            36,928                    84,934,656
|    |    |    |    |    └─ReLU: 6-234                       [-1, 64, 48, 48]          [-1, 64, 48, 48]          --                        --                        --
|    |    |    |    |    └─Conv2d: 6-235                     [-1, 64, 48, 48]          [-1, 64, 48, 48]          [64, 64, 3, 3]            36,928                    84,934,656
|    |    |    |    |    └─CALayer: 6-236                    [-1, 64, 48, 48]          [-1, 64, 48, 48]          --                        --                        --
|    |    |    |    |    |    └─AdaptiveAvgPool2d: 7-117     [-1, 64, 48, 48]          [-1, 64, 1, 1]            --                        --                        --
|    |    |    |    |    |    └─Sequential: 7-118            [-1, 64, 1, 1]            [-1, 64, 1, 1]            --                        --                        --
|    |    |    |    |    |    |    └─Conv2d: 8-233           [-1, 64, 1, 1]            [-1, 4, 1, 1]             [64, 4, 1, 1]             260                       256
|    |    |    |    |    |    |    └─ReLU: 8-234             [-1, 4, 1, 1]             [-1, 4, 1, 1]             --                        --                        --
|    |    |    |    |    |    |    └─Conv2d: 8-235           [-1, 4, 1, 1]             [-1, 64, 1, 1]            [4, 64, 1, 1]             320                       256
|    |    |    |    |    |    |    └─Sigmoid: 8-236          [-1, 64, 1, 1]            [-1, 64, 1, 1]            --                        --                        --
|    |    |    └─RCAB: 4-62                                  [-1, 64, 48, 48]          [-1, 64, 48, 48]          --                        --                        --
|    |    |    |    └─Sequential: 5-60                       [-1, 64, 48, 48]          [-1, 64, 48, 48]          --                        --                        --
|    |    |    |    |    └─Conv2d: 6-237                     [-1, 64, 48, 48]          [-1, 64, 48, 48]          [64, 64, 3, 3]            36,928                    84,934,656
|    |    |    |    |    └─ReLU: 6-238                       [-1, 64, 48, 48]          [-1, 64, 48, 48]          --                        --                        --
|    |    |    |    |    └─Conv2d: 6-239                     [-1, 64, 48, 48]          [-1, 64, 48, 48]          [64, 64, 3, 3]            36,928                    84,934,656
|    |    |    |    |    └─CALayer: 6-240                    [-1, 64, 48, 48]          [-1, 64, 48, 48]          --                        --                        --
|    |    |    |    |    |    └─AdaptiveAvgPool2d: 7-119     [-1, 64, 48, 48]          [-1, 64, 1, 1]            --                        --                        --
|    |    |    |    |    |    └─Sequential: 7-120            [-1, 64, 1, 1]            [-1, 64, 1, 1]            --                        --                        --
|    |    |    |    |    |    |    └─Conv2d: 8-237           [-1, 64, 1, 1]            [-1, 4, 1, 1]             [64, 4, 1, 1]             260                       256
|    |    |    |    |    |    |    └─ReLU: 8-238             [-1, 4, 1, 1]             [-1, 4, 1, 1]             --                        --                        --
|    |    |    |    |    |    |    └─Conv2d: 8-239           [-1, 4, 1, 1]             [-1, 64, 1, 1]            [4, 64, 1, 1]             320                       256
|    |    |    |    |    |    |    └─Sigmoid: 8-240          [-1, 64, 1, 1]            [-1, 64, 1, 1]            --                        --                        --
|    |    |    └─Conv2d: 4-63                                [-1, 64, 48, 48]          [-1, 64, 48, 48]          [64, 64, 3, 3]            36,928                    84,934,656
|    └─ResidualGroup: 2-5                                    [-1, 64, 48, 48]          [-1, 64, 48, 48]          --                        --                        --
|    |    └─Sequential: 3-4                                  [-1, 64, 48, 48]          [-1, 64, 48, 48]          --                        --                        --
|    |    |    └─RCAB: 4-64                                  [-1, 64, 48, 48]          [-1, 64, 48, 48]          --                        --                        --
|    |    |    |    └─Sequential: 5-61                       [-1, 64, 48, 48]          [-1, 64, 48, 48]          --                        --                        --
|    |    |    |    |    └─Conv2d: 6-241                     [-1, 64, 48, 48]          [-1, 64, 48, 48]          [64, 64, 3, 3]            36,928                    84,934,656
|    |    |    |    |    └─ReLU: 6-242                       [-1, 64, 48, 48]          [-1, 64, 48, 48]          --                        --                        --
|    |    |    |    |    └─Conv2d: 6-243                     [-1, 64, 48, 48]          [-1, 64, 48, 48]          [64, 64, 3, 3]            36,928                    84,934,656
|    |    |    |    |    └─CALayer: 6-244                    [-1, 64, 48, 48]          [-1, 64, 48, 48]          --                        --                        --
|    |    |    |    |    |    └─AdaptiveAvgPool2d: 7-121     [-1, 64, 48, 48]          [-1, 64, 1, 1]            --                        --                        --
|    |    |    |    |    |    └─Sequential: 7-122            [-1, 64, 1, 1]            [-1, 64, 1, 1]            --                        --                        --
|    |    |    |    |    |    |    └─Conv2d: 8-241           [-1, 64, 1, 1]            [-1, 4, 1, 1]             [64, 4, 1, 1]             260                       256
|    |    |    |    |    |    |    └─ReLU: 8-242             [-1, 4, 1, 1]             [-1, 4, 1, 1]             --                        --                        --
|    |    |    |    |    |    |    └─Conv2d: 8-243           [-1, 4, 1, 1]             [-1, 64, 1, 1]            [4, 64, 1, 1]             320                       256
|    |    |    |    |    |    |    └─Sigmoid: 8-244          [-1, 64, 1, 1]            [-1, 64, 1, 1]            --                        --                        --
|    |    |    └─RCAB: 4-65                                  [-1, 64, 48, 48]          [-1, 64, 48, 48]          --                        --                        --
|    |    |    |    └─Sequential: 5-62                       [-1, 64, 48, 48]          [-1, 64, 48, 48]          --                        --                        --
|    |    |    |    |    └─Conv2d: 6-245                     [-1, 64, 48, 48]          [-1, 64, 48, 48]          [64, 64, 3, 3]            36,928                    84,934,656
|    |    |    |    |    └─ReLU: 6-246                       [-1, 64, 48, 48]          [-1, 64, 48, 48]          --                        --                        --
|    |    |    |    |    └─Conv2d: 6-247                     [-1, 64, 48, 48]          [-1, 64, 48, 48]          [64, 64, 3, 3]            36,928                    84,934,656
|    |    |    |    |    └─CALayer: 6-248                    [-1, 64, 48, 48]          [-1, 64, 48, 48]          --                        --                        --
|    |    |    |    |    |    └─AdaptiveAvgPool2d: 7-123     [-1, 64, 48, 48]          [-1, 64, 1, 1]            --                        --                        --
|    |    |    |    |    |    └─Sequential: 7-124            [-1, 64, 1, 1]            [-1, 64, 1, 1]            --                        --                        --
|    |    |    |    |    |    |    └─Conv2d: 8-245           [-1, 64, 1, 1]            [-1, 4, 1, 1]             [64, 4, 1, 1]             260                       256
|    |    |    |    |    |    |    └─ReLU: 8-246             [-1, 4, 1, 1]             [-1, 4, 1, 1]             --                        --                        --
|    |    |    |    |    |    |    └─Conv2d: 8-247           [-1, 4, 1, 1]             [-1, 64, 1, 1]            [4, 64, 1, 1]             320                       256
|    |    |    |    |    |    |    └─Sigmoid: 8-248          [-1, 64, 1, 1]            [-1, 64, 1, 1]            --                        --                        --
|    |    |    └─RCAB: 4-66                                  [-1, 64, 48, 48]          [-1, 64, 48, 48]          --                        --                        --
|    |    |    |    └─Sequential: 5-63                       [-1, 64, 48, 48]          [-1, 64, 48, 48]          --                        --                        --
|    |    |    |    |    └─Conv2d: 6-249                     [-1, 64, 48, 48]          [-1, 64, 48, 48]          [64, 64, 3, 3]            36,928                    84,934,656
|    |    |    |    |    └─ReLU: 6-250                       [-1, 64, 48, 48]          [-1, 64, 48, 48]          --                        --                        --
|    |    |    |    |    └─Conv2d: 6-251                     [-1, 64, 48, 48]          [-1, 64, 48, 48]          [64, 64, 3, 3]            36,928                    84,934,656
|    |    |    |    |    └─CALayer: 6-252                    [-1, 64, 48, 48]          [-1, 64, 48, 48]          --                        --                        --
|    |    |    |    |    |    └─AdaptiveAvgPool2d: 7-125     [-1, 64, 48, 48]          [-1, 64, 1, 1]            --                        --                        --
|    |    |    |    |    |    └─Sequential: 7-126            [-1, 64, 1, 1]            [-1, 64, 1, 1]            --                        --                        --
|    |    |    |    |    |    |    └─Conv2d: 8-249           [-1, 64, 1, 1]            [-1, 4, 1, 1]             [64, 4, 1, 1]             260                       256
|    |    |    |    |    |    |    └─ReLU: 8-250             [-1, 4, 1, 1]             [-1, 4, 1, 1]             --                        --                        --
|    |    |    |    |    |    |    └─Conv2d: 8-251           [-1, 4, 1, 1]             [-1, 64, 1, 1]            [4, 64, 1, 1]             320                       256
|    |    |    |    |    |    |    └─Sigmoid: 8-252          [-1, 64, 1, 1]            [-1, 64, 1, 1]            --                        --                        --
|    |    |    └─RCAB: 4-67                                  [-1, 64, 48, 48]          [-1, 64, 48, 48]          --                        --                        --
|    |    |    |    └─Sequential: 5-64                       [-1, 64, 48, 48]          [-1, 64, 48, 48]          --                        --                        --
|    |    |    |    |    └─Conv2d: 6-253                     [-1, 64, 48, 48]          [-1, 64, 48, 48]          [64, 64, 3, 3]            36,928                    84,934,656
|    |    |    |    |    └─ReLU: 6-254                       [-1, 64, 48, 48]          [-1, 64, 48, 48]          --                        --                        --
|    |    |    |    |    └─Conv2d: 6-255                     [-1, 64, 48, 48]          [-1, 64, 48, 48]          [64, 64, 3, 3]            36,928                    84,934,656
|    |    |    |    |    └─CALayer: 6-256                    [-1, 64, 48, 48]          [-1, 64, 48, 48]          --                        --                        --
|    |    |    |    |    |    └─AdaptiveAvgPool2d: 7-127     [-1, 64, 48, 48]          [-1, 64, 1, 1]            --                        --                        --
|    |    |    |    |    |    └─Sequential: 7-128            [-1, 64, 1, 1]            [-1, 64, 1, 1]            --                        --                        --
|    |    |    |    |    |    |    └─Conv2d: 8-253           [-1, 64, 1, 1]            [-1, 4, 1, 1]             [64, 4, 1, 1]             260                       256
|    |    |    |    |    |    |    └─ReLU: 8-254             [-1, 4, 1, 1]             [-1, 4, 1, 1]             --                        --                        --
|    |    |    |    |    |    |    └─Conv2d: 8-255           [-1, 4, 1, 1]             [-1, 64, 1, 1]            [4, 64, 1, 1]             320                       256
|    |    |    |    |    |    |    └─Sigmoid: 8-256          [-1, 64, 1, 1]            [-1, 64, 1, 1]            --                        --                        --
|    |    |    └─RCAB: 4-68                                  [-1, 64, 48, 48]          [-1, 64, 48, 48]          --                        --                        --
|    |    |    |    └─Sequential: 5-65                       [-1, 64, 48, 48]          [-1, 64, 48, 48]          --                        --                        --
|    |    |    |    |    └─Conv2d: 6-257                     [-1, 64, 48, 48]          [-1, 64, 48, 48]          [64, 64, 3, 3]            36,928                    84,934,656
|    |    |    |    |    └─ReLU: 6-258                       [-1, 64, 48, 48]          [-1, 64, 48, 48]          --                        --                        --
|    |    |    |    |    └─Conv2d: 6-259                     [-1, 64, 48, 48]          [-1, 64, 48, 48]          [64, 64, 3, 3]            36,928                    84,934,656
|    |    |    |    |    └─CALayer: 6-260                    [-1, 64, 48, 48]          [-1, 64, 48, 48]          --                        --                        --
|    |    |    |    |    |    └─AdaptiveAvgPool2d: 7-129     [-1, 64, 48, 48]          [-1, 64, 1, 1]            --                        --                        --
|    |    |    |    |    |    └─Sequential: 7-130            [-1, 64, 1, 1]            [-1, 64, 1, 1]            --                        --                        --
|    |    |    |    |    |    |    └─Conv2d: 8-257           [-1, 64, 1, 1]            [-1, 4, 1, 1]             [64, 4, 1, 1]             260                       256
|    |    |    |    |    |    |    └─ReLU: 8-258             [-1, 4, 1, 1]             [-1, 4, 1, 1]             --                        --                        --
|    |    |    |    |    |    |    └─Conv2d: 8-259           [-1, 4, 1, 1]             [-1, 64, 1, 1]            [4, 64, 1, 1]             320                       256
|    |    |    |    |    |    |    └─Sigmoid: 8-260          [-1, 64, 1, 1]            [-1, 64, 1, 1]            --                        --                        --
|    |    |    └─RCAB: 4-69                                  [-1, 64, 48, 48]          [-1, 64, 48, 48]          --                        --                        --
|    |    |    |    └─Sequential: 5-66                       [-1, 64, 48, 48]          [-1, 64, 48, 48]          --                        --                        --
|    |    |    |    |    └─Conv2d: 6-261                     [-1, 64, 48, 48]          [-1, 64, 48, 48]          [64, 64, 3, 3]            36,928                    84,934,656
|    |    |    |    |    └─ReLU: 6-262                       [-1, 64, 48, 48]          [-1, 64, 48, 48]          --                        --                        --
|    |    |    |    |    └─Conv2d: 6-263                     [-1, 64, 48, 48]          [-1, 64, 48, 48]          [64, 64, 3, 3]            36,928                    84,934,656
|    |    |    |    |    └─CALayer: 6-264                    [-1, 64, 48, 48]          [-1, 64, 48, 48]          --                        --                        --
|    |    |    |    |    |    └─AdaptiveAvgPool2d: 7-131     [-1, 64, 48, 48]          [-1, 64, 1, 1]            --                        --                        --
|    |    |    |    |    |    └─Sequential: 7-132            [-1, 64, 1, 1]            [-1, 64, 1, 1]            --                        --                        --
|    |    |    |    |    |    |    └─Conv2d: 8-261           [-1, 64, 1, 1]            [-1, 4, 1, 1]             [64, 4, 1, 1]             260                       256
|    |    |    |    |    |    |    └─ReLU: 8-262             [-1, 4, 1, 1]             [-1, 4, 1, 1]             --                        --                        --
|    |    |    |    |    |    |    └─Conv2d: 8-263           [-1, 4, 1, 1]             [-1, 64, 1, 1]            [4, 64, 1, 1]             320                       256
|    |    |    |    |    |    |    └─Sigmoid: 8-264          [-1, 64, 1, 1]            [-1, 64, 1, 1]            --                        --                        --
|    |    |    └─RCAB: 4-70                                  [-1, 64, 48, 48]          [-1, 64, 48, 48]          --                        --                        --
|    |    |    |    └─Sequential: 5-67                       [-1, 64, 48, 48]          [-1, 64, 48, 48]          --                        --                        --
|    |    |    |    |    └─Conv2d: 6-265                     [-1, 64, 48, 48]          [-1, 64, 48, 48]          [64, 64, 3, 3]            36,928                    84,934,656
|    |    |    |    |    └─ReLU: 6-266                       [-1, 64, 48, 48]          [-1, 64, 48, 48]          --                        --                        --
|    |    |    |    |    └─Conv2d: 6-267                     [-1, 64, 48, 48]          [-1, 64, 48, 48]          [64, 64, 3, 3]            36,928                    84,934,656
|    |    |    |    |    └─CALayer: 6-268                    [-1, 64, 48, 48]          [-1, 64, 48, 48]          --                        --                        --
|    |    |    |    |    |    └─AdaptiveAvgPool2d: 7-133     [-1, 64, 48, 48]          [-1, 64, 1, 1]            --                        --                        --
|    |    |    |    |    |    └─Sequential: 7-134            [-1, 64, 1, 1]            [-1, 64, 1, 1]            --                        --                        --
|    |    |    |    |    |    |    └─Conv2d: 8-265           [-1, 64, 1, 1]            [-1, 4, 1, 1]             [64, 4, 1, 1]             260                       256
|    |    |    |    |    |    |    └─ReLU: 8-266             [-1, 4, 1, 1]             [-1, 4, 1, 1]             --                        --                        --
|    |    |    |    |    |    |    └─Conv2d: 8-267           [-1, 4, 1, 1]             [-1, 64, 1, 1]            [4, 64, 1, 1]             320                       256
|    |    |    |    |    |    |    └─Sigmoid: 8-268          [-1, 64, 1, 1]            [-1, 64, 1, 1]            --                        --                        --
|    |    |    └─RCAB: 4-71                                  [-1, 64, 48, 48]          [-1, 64, 48, 48]          --                        --                        --
|    |    |    |    └─Sequential: 5-68                       [-1, 64, 48, 48]          [-1, 64, 48, 48]          --                        --                        --
|    |    |    |    |    └─Conv2d: 6-269                     [-1, 64, 48, 48]          [-1, 64, 48, 48]          [64, 64, 3, 3]            36,928                    84,934,656
|    |    |    |    |    └─ReLU: 6-270                       [-1, 64, 48, 48]          [-1, 64, 48, 48]          --                        --                        --
|    |    |    |    |    └─Conv2d: 6-271                     [-1, 64, 48, 48]          [-1, 64, 48, 48]          [64, 64, 3, 3]            36,928                    84,934,656
|    |    |    |    |    └─CALayer: 6-272                    [-1, 64, 48, 48]          [-1, 64, 48, 48]          --                        --                        --
|    |    |    |    |    |    └─AdaptiveAvgPool2d: 7-135     [-1, 64, 48, 48]          [-1, 64, 1, 1]            --                        --                        --
|    |    |    |    |    |    └─Sequential: 7-136            [-1, 64, 1, 1]            [-1, 64, 1, 1]            --                        --                        --
|    |    |    |    |    |    |    └─Conv2d: 8-269           [-1, 64, 1, 1]            [-1, 4, 1, 1]             [64, 4, 1, 1]             260                       256
|    |    |    |    |    |    |    └─ReLU: 8-270             [-1, 4, 1, 1]             [-1, 4, 1, 1]             --                        --                        --
|    |    |    |    |    |    |    └─Conv2d: 8-271           [-1, 4, 1, 1]             [-1, 64, 1, 1]            [4, 64, 1, 1]             320                       256
|    |    |    |    |    |    |    └─Sigmoid: 8-272          [-1, 64, 1, 1]            [-1, 64, 1, 1]            --                        --                        --
|    |    |    └─RCAB: 4-72                                  [-1, 64, 48, 48]          [-1, 64, 48, 48]          --                        --                        --
|    |    |    |    └─Sequential: 5-69                       [-1, 64, 48, 48]          [-1, 64, 48, 48]          --                        --                        --
|    |    |    |    |    └─Conv2d: 6-273                     [-1, 64, 48, 48]          [-1, 64, 48, 48]          [64, 64, 3, 3]            36,928                    84,934,656
|    |    |    |    |    └─ReLU: 6-274                       [-1, 64, 48, 48]          [-1, 64, 48, 48]          --                        --                        --
|    |    |    |    |    └─Conv2d: 6-275                     [-1, 64, 48, 48]          [-1, 64, 48, 48]          [64, 64, 3, 3]            36,928                    84,934,656
|    |    |    |    |    └─CALayer: 6-276                    [-1, 64, 48, 48]          [-1, 64, 48, 48]          --                        --                        --
|    |    |    |    |    |    └─AdaptiveAvgPool2d: 7-137     [-1, 64, 48, 48]          [-1, 64, 1, 1]            --                        --                        --
|    |    |    |    |    |    └─Sequential: 7-138            [-1, 64, 1, 1]            [-1, 64, 1, 1]            --                        --                        --
|    |    |    |    |    |    |    └─Conv2d: 8-273           [-1, 64, 1, 1]            [-1, 4, 1, 1]             [64, 4, 1, 1]             260                       256
|    |    |    |    |    |    |    └─ReLU: 8-274             [-1, 4, 1, 1]             [-1, 4, 1, 1]             --                        --                        --
|    |    |    |    |    |    |    └─Conv2d: 8-275           [-1, 4, 1, 1]             [-1, 64, 1, 1]            [4, 64, 1, 1]             320                       256
|    |    |    |    |    |    |    └─Sigmoid: 8-276          [-1, 64, 1, 1]            [-1, 64, 1, 1]            --                        --                        --
|    |    |    └─RCAB: 4-73                                  [-1, 64, 48, 48]          [-1, 64, 48, 48]          --                        --                        --
|    |    |    |    └─Sequential: 5-70                       [-1, 64, 48, 48]          [-1, 64, 48, 48]          --                        --                        --
|    |    |    |    |    └─Conv2d: 6-277                     [-1, 64, 48, 48]          [-1, 64, 48, 48]          [64, 64, 3, 3]            36,928                    84,934,656
|    |    |    |    |    └─ReLU: 6-278                       [-1, 64, 48, 48]          [-1, 64, 48, 48]          --                        --                        --
|    |    |    |    |    └─Conv2d: 6-279                     [-1, 64, 48, 48]          [-1, 64, 48, 48]          [64, 64, 3, 3]            36,928                    84,934,656
|    |    |    |    |    └─CALayer: 6-280                    [-1, 64, 48, 48]          [-1, 64, 48, 48]          --                        --                        --
|    |    |    |    |    |    └─AdaptiveAvgPool2d: 7-139     [-1, 64, 48, 48]          [-1, 64, 1, 1]            --                        --                        --
|    |    |    |    |    |    └─Sequential: 7-140            [-1, 64, 1, 1]            [-1, 64, 1, 1]            --                        --                        --
|    |    |    |    |    |    |    └─Conv2d: 8-277           [-1, 64, 1, 1]            [-1, 4, 1, 1]             [64, 4, 1, 1]             260                       256
|    |    |    |    |    |    |    └─ReLU: 8-278             [-1, 4, 1, 1]             [-1, 4, 1, 1]             --                        --                        --
|    |    |    |    |    |    |    └─Conv2d: 8-279           [-1, 4, 1, 1]             [-1, 64, 1, 1]            [4, 64, 1, 1]             320                       256
|    |    |    |    |    |    |    └─Sigmoid: 8-280          [-1, 64, 1, 1]            [-1, 64, 1, 1]            --                        --                        --
|    |    |    └─RCAB: 4-74                                  [-1, 64, 48, 48]          [-1, 64, 48, 48]          --                        --                        --
|    |    |    |    └─Sequential: 5-71                       [-1, 64, 48, 48]          [-1, 64, 48, 48]          --                        --                        --
|    |    |    |    |    └─Conv2d: 6-281                     [-1, 64, 48, 48]          [-1, 64, 48, 48]          [64, 64, 3, 3]            36,928                    84,934,656
|    |    |    |    |    └─ReLU: 6-282                       [-1, 64, 48, 48]          [-1, 64, 48, 48]          --                        --                        --
|    |    |    |    |    └─Conv2d: 6-283                     [-1, 64, 48, 48]          [-1, 64, 48, 48]          [64, 64, 3, 3]            36,928                    84,934,656
|    |    |    |    |    └─CALayer: 6-284                    [-1, 64, 48, 48]          [-1, 64, 48, 48]          --                        --                        --
|    |    |    |    |    |    └─AdaptiveAvgPool2d: 7-141     [-1, 64, 48, 48]          [-1, 64, 1, 1]            --                        --                        --
|    |    |    |    |    |    └─Sequential: 7-142            [-1, 64, 1, 1]            [-1, 64, 1, 1]            --                        --                        --
|    |    |    |    |    |    |    └─Conv2d: 8-281           [-1, 64, 1, 1]            [-1, 4, 1, 1]             [64, 4, 1, 1]             260                       256
|    |    |    |    |    |    |    └─ReLU: 8-282             [-1, 4, 1, 1]             [-1, 4, 1, 1]             --                        --                        --
|    |    |    |    |    |    |    └─Conv2d: 8-283           [-1, 4, 1, 1]             [-1, 64, 1, 1]            [4, 64, 1, 1]             320                       256
|    |    |    |    |    |    |    └─Sigmoid: 8-284          [-1, 64, 1, 1]            [-1, 64, 1, 1]            --                        --                        --
|    |    |    └─RCAB: 4-75                                  [-1, 64, 48, 48]          [-1, 64, 48, 48]          --                        --                        --
|    |    |    |    └─Sequential: 5-72                       [-1, 64, 48, 48]          [-1, 64, 48, 48]          --                        --                        --
|    |    |    |    |    └─Conv2d: 6-285                     [-1, 64, 48, 48]          [-1, 64, 48, 48]          [64, 64, 3, 3]            36,928                    84,934,656
|    |    |    |    |    └─ReLU: 6-286                       [-1, 64, 48, 48]          [-1, 64, 48, 48]          --                        --                        --
|    |    |    |    |    └─Conv2d: 6-287                     [-1, 64, 48, 48]          [-1, 64, 48, 48]          [64, 64, 3, 3]            36,928                    84,934,656
|    |    |    |    |    └─CALayer: 6-288                    [-1, 64, 48, 48]          [-1, 64, 48, 48]          --                        --                        --
|    |    |    |    |    |    └─AdaptiveAvgPool2d: 7-143     [-1, 64, 48, 48]          [-1, 64, 1, 1]            --                        --                        --
|    |    |    |    |    |    └─Sequential: 7-144            [-1, 64, 1, 1]            [-1, 64, 1, 1]            --                        --                        --
|    |    |    |    |    |    |    └─Conv2d: 8-285           [-1, 64, 1, 1]            [-1, 4, 1, 1]             [64, 4, 1, 1]             260                       256
|    |    |    |    |    |    |    └─ReLU: 8-286             [-1, 4, 1, 1]             [-1, 4, 1, 1]             --                        --                        --
|    |    |    |    |    |    |    └─Conv2d: 8-287           [-1, 4, 1, 1]             [-1, 64, 1, 1]            [4, 64, 1, 1]             320                       256
|    |    |    |    |    |    |    └─Sigmoid: 8-288          [-1, 64, 1, 1]            [-1, 64, 1, 1]            --                        --                        --
|    |    |    └─RCAB: 4-76                                  [-1, 64, 48, 48]          [-1, 64, 48, 48]          --                        --                        --
|    |    |    |    └─Sequential: 5-73                       [-1, 64, 48, 48]          [-1, 64, 48, 48]          --                        --                        --
…
|    |    |    |    |    |    |    └─Sigmoid: 8-708          [-1, 64, 1, 1]            [-1, 64, 1, 1]            --                        --                        --
|    |    |    └─RCAB: 4-186                                 [-1, 64, 48, 48]          [-1, 64, 48, 48]          --                        --                        --
|    |    |    |    └─Sequential: 5-178                      [-1, 64, 48, 48]          [-1, 64, 48, 48]          --                        --                        --
|    |    |    |    |    └─Conv2d: 6-709                     [-1, 64, 48, 48]          [-1, 64, 48, 48]          [64, 64, 3, 3]            36,928                    84,934,656
|    |    |    |    |    └─ReLU: 6-710                       [-1, 64, 48, 48]          [-1, 64, 48, 48]          --                        --                        --
|    |    |    |    |    └─Conv2d: 6-711                     [-1, 64, 48, 48]          [-1, 64, 48, 48]          [64, 64, 3, 3]            36,928                    84,934,656
|    |    |    |    |    └─CALayer: 6-712                    [-1, 64, 48, 48]          [-1, 64, 48, 48]          --                        --                        --
|    |    |    |    |    |    └─AdaptiveAvgPool2d: 7-355     [-1, 64, 48, 48]          [-1, 64, 1, 1]            --                        --                        --
|    |    |    |    |    |    └─Sequential: 7-356            [-1, 64, 1, 1]            [-1, 64, 1, 1]            --                        --                        --
|    |    |    |    |    |    |    └─Conv2d: 8-709           [-1, 64, 1, 1]            [-1, 4, 1, 1]             [64, 4, 1, 1]             260                       256
|    |    |    |    |    |    |    └─ReLU: 8-710             [-1, 4, 1, 1]             [-1, 4, 1, 1]             --                        --                        --
|    |    |    |    |    |    |    └─Conv2d: 8-711           [-1, 4, 1, 1]             [-1, 64, 1, 1]            [4, 64, 1, 1]             320                       256
|    |    |    |    |    |    |    └─Sigmoid: 8-712          [-1, 64, 1, 1]            [-1, 64, 1, 1]            --                        --                        --
|    |    |    └─RCAB: 4-187                                 [-1, 64, 48, 48]          [-1, 64, 48, 48]          --                        --                        --
|    |    |    |    └─Sequential: 5-179                      [-1, 64, 48, 48]          [-1, 64, 48, 48]          --                        --                        --
|    |    |    |    |    └─Conv2d: 6-713                     [-1, 64, 48, 48]          [-1, 64, 48, 48]          [64, 64, 3, 3]            36,928                    84,934,656
|    |    |    |    |    └─ReLU: 6-714                       [-1, 64, 48, 48]          [-1, 64, 48, 48]          --                        --                        --
|    |    |    |    |    └─Conv2d: 6-715                     [-1, 64, 48, 48]          [-1, 64, 48, 48]          [64, 64, 3, 3]            36,928                    84,934,656
|    |    |    |    |    └─CALayer: 6-716                    [-1, 64, 48, 48]          [-1, 64, 48, 48]          --                        --                        --
|    |    |    |    |    |    └─AdaptiveAvgPool2d: 7-357     [-1, 64, 48, 48]          [-1, 64, 1, 1]            --                        --                        --
|    |    |    |    |    |    └─Sequential: 7-358            [-1, 64, 1, 1]            [-1, 64, 1, 1]            --                        --                        --
|    |    |    |    |    |    |    └─Conv2d: 8-713           [-1, 64, 1, 1]            [-1, 4, 1, 1]             [64, 4, 1, 1]             260                       256
|    |    |    |    |    |    |    └─ReLU: 8-714             [-1, 4, 1, 1]             [-1, 4, 1, 1]             --                        --                        --
|    |    |    |    |    |    |    └─Conv2d: 8-715           [-1, 4, 1, 1]             [-1, 64, 1, 1]            [4, 64, 1, 1]             320                       256
|    |    |    |    |    |    |    └─Sigmoid: 8-716          [-1, 64, 1, 1]            [-1, 64, 1, 1]            --                        --                        --
|    |    |    └─RCAB: 4-188                                 [-1, 64, 48, 48]          [-1, 64, 48, 48]          --                        --                        --
|    |    |    |    └─Sequential: 5-180                      [-1, 64, 48, 48]          [-1, 64, 48, 48]          --                        --                        --
|    |    |    |    |    └─Conv2d: 6-717                     [-1, 64, 48, 48]          [-1, 64, 48, 48]          [64, 64, 3, 3]            36,928                    84,934,656
|    |    |    |    |    └─ReLU: 6-718                       [-1, 64, 48, 48]          [-1, 64, 48, 48]          --                        --                        --
|    |    |    |    |    └─Conv2d: 6-719                     [-1, 64, 48, 48]          [-1, 64, 48, 48]          [64, 64, 3, 3]            36,928                    84,934,656
|    |    |    |    |    └─CALayer: 6-720                    [-1, 64, 48, 48]          [-1, 64, 48, 48]          --                        --                        --
|    |    |    |    |    |    └─AdaptiveAvgPool2d: 7-359     [-1, 64, 48, 48]          [-1, 64, 1, 1]            --                        --                        --
|    |    |    |    |    |    └─Sequential: 7-360            [-1, 64, 1, 1]            [-1, 64, 1, 1]            --                        --                        --
|    |    |    |    |    |    |    └─Conv2d: 8-717           [-1, 64, 1, 1]            [-1, 4, 1, 1]             [64, 4, 1, 1]             260                       256
|    |    |    |    |    |    |    └─ReLU: 8-718             [-1, 4, 1, 1]             [-1, 4, 1, 1]             --                        --                        --
|    |    |    |    |    |    |    └─Conv2d: 8-719           [-1, 4, 1, 1]             [-1, 64, 1, 1]            [4, 64, 1, 1]             320                       256
|    |    |    |    |    |    |    └─Sigmoid: 8-720          [-1, 64, 1, 1]            [-1, 64, 1, 1]            --                        --                        --
|    |    |    └─Conv2d: 4-189                               [-1, 64, 48, 48]          [-1, 64, 48, 48]          [64, 64, 3, 3]            36,928                    84,934,656
|    └─ResidualGroup: 2-11                                   [-1, 64, 48, 48]          [-1, 64, 48, 48]          --                        --                        --
|    |    └─Sequential: 3-10                                 [-1, 64, 48, 48]          [-1, 64, 48, 48]          --                        --                        --
|    |    |    └─RCAB: 4-190                                 [-1, 64, 48, 48]          [-1, 64, 48, 48]          --                        --                        --
|    |    |    |    └─Sequential: 5-181                      [-1, 64, 48, 48]          [-1, 64, 48, 48]          --                        --                        --
|    |    |    |    |    └─Conv2d: 6-721                     [-1, 64, 48, 48]          [-1, 64, 48, 48]          [64, 64, 3, 3]            36,928                    84,934,656
|    |    |    |    |    └─ReLU: 6-722                       [-1, 64, 48, 48]          [-1, 64, 48, 48]          --                        --                        --
|    |    |    |    |    └─Conv2d: 6-723                     [-1, 64, 48, 48]          [-1, 64, 48, 48]          [64, 64, 3, 3]            36,928                    84,934,656
|    |    |    |    |    └─CALayer: 6-724                    [-1, 64, 48, 48]          [-1, 64, 48, 48]          --                        --                        --
|    |    |    |    |    |    └─AdaptiveAvgPool2d: 7-361     [-1, 64, 48, 48]          [-1, 64, 1, 1]            --                        --                        --
|    |    |    |    |    |    └─Sequential: 7-362            [-1, 64, 1, 1]            [-1, 64, 1, 1]            --                        --                        --
|    |    |    |    |    |    |    └─Conv2d: 8-721           [-1, 64, 1, 1]            [-1, 4, 1, 1]             [64, 4, 1, 1]             260                       256
|    |    |    |    |    |    |    └─ReLU: 8-722             [-1, 4, 1, 1]             [-1, 4, 1, 1]             --                        --                        --
|    |    |    |    |    |    |    └─Conv2d: 8-723           [-1, 4, 1, 1]             [-1, 64, 1, 1]            [4, 64, 1, 1]             320                       256
|    |    |    |    |    |    |    └─Sigmoid: 8-724          [-1, 64, 1, 1]            [-1, 64, 1, 1]            --                        --                        --
|    |    |    └─RCAB: 4-191                                 [-1, 64, 48, 48]          [-1, 64, 48, 48]          --                        --                        --
|    |    |    |    └─Sequential: 5-182                      [-1, 64, 48, 48]          [-1, 64, 48, 48]          --                        --                        --
|    |    |    |    |    └─Conv2d: 6-725                     [-1, 64, 48, 48]          [-1, 64, 48, 48]          [64, 64, 3, 3]            36,928                    84,934,656
|    |    |    |    |    └─ReLU: 6-726                       [-1, 64, 48, 48]          [-1, 64, 48, 48]          --                        --                        --
|    |    |    |    |    └─Conv2d: 6-727                     [-1, 64, 48, 48]          [-1, 64, 48, 48]          [64, 64, 3, 3]            36,928                    84,934,656
|    |    |    |    |    └─CALayer: 6-728                    [-1, 64, 48, 48]          [-1, 64, 48, 48]          --                        --                        --
|    |    |    |    |    |    └─AdaptiveAvgPool2d: 7-363     [-1, 64, 48, 48]          [-1, 64, 1, 1]            --                        --                        --
|    |    |    |    |    |    └─Sequential: 7-364            [-1, 64, 1, 1]            [-1, 64, 1, 1]            --                        --                        --
|    |    |    |    |    |    |    └─Conv2d: 8-725           [-1, 64, 1, 1]            [-1, 4, 1, 1]             [64, 4, 1, 1]             260                       256
|    |    |    |    |    |    |    └─ReLU: 8-726             [-1, 4, 1, 1]             [-1, 4, 1, 1]             --                        --                        --
|    |    |    |    |    |    |    └─Conv2d: 8-727           [-1, 4, 1, 1]             [-1, 64, 1, 1]            [4, 64, 1, 1]             320                       256
|    |    |    |    |    |    |    └─Sigmoid: 8-728          [-1, 64, 1, 1]            [-1, 64, 1, 1]            --                        --                        --
|    |    |    └─RCAB: 4-192                                 [-1, 64, 48, 48]          [-1, 64, 48, 48]          --                        --                        --
|    |    |    |    └─Sequential: 5-183                      [-1, 64, 48, 48]          [-1, 64, 48, 48]          --                        --                        --
|    |    |    |    |    └─Conv2d: 6-729                     [-1, 64, 48, 48]          [-1, 64, 48, 48]          [64, 64, 3, 3]            36,928                    84,934,656
|    |    |    |    |    └─ReLU: 6-730                       [-1, 64, 48, 48]          [-1, 64, 48, 48]          --                        --                        --
|    |    |    |    |    └─Conv2d: 6-731                     [-1, 64, 48, 48]          [-1, 64, 48, 48]          [64, 64, 3, 3]            36,928                    84,934,656
|    |    |    |    |    └─CALayer: 6-732                    [-1, 64, 48, 48]          [-1, 64, 48, 48]          --                        --                        --
|    |    |    |    |    |    └─AdaptiveAvgPool2d: 7-365     [-1, 64, 48, 48]          [-1, 64, 1, 1]            --                        --                        --
|    |    |    |    |    |    └─Sequential: 7-366            [-1, 64, 1, 1]            [-1, 64, 1, 1]            --                        --                        --
|    |    |    |    |    |    |    └─Conv2d: 8-729           [-1, 64, 1, 1]            [-1, 4, 1, 1]             [64, 4, 1, 1]             260                       256
|    |    |    |    |    |    |    └─ReLU: 8-730             [-1, 4, 1, 1]             [-1, 4, 1, 1]             --                        --                        --
|    |    |    |    |    |    |    └─Conv2d: 8-731           [-1, 4, 1, 1]             [-1, 64, 1, 1]            [4, 64, 1, 1]             320                       256
|    |    |    |    |    |    |    └─Sigmoid: 8-732          [-1, 64, 1, 1]            [-1, 64, 1, 1]            --                        --                        --
|    |    |    └─RCAB: 4-193                                 [-1, 64, 48, 48]          [-1, 64, 48, 48]          --                        --                        --
|    |    |    |    └─Sequential: 5-184                      [-1, 64, 48, 48]          [-1, 64, 48, 48]          --                        --                        --
|    |    |    |    |    └─Conv2d: 6-733                     [-1, 64, 48, 48]          [-1, 64, 48, 48]          [64, 64, 3, 3]            36,928                    84,934,656
|    |    |    |    |    └─ReLU: 6-734                       [-1, 64, 48, 48]          [-1, 64, 48, 48]          --                        --                        --
|    |    |    |    |    └─Conv2d: 6-735                     [-1, 64, 48, 48]          [-1, 64, 48, 48]          [64, 64, 3, 3]            36,928                    84,934,656
|    |    |    |    |    └─CALayer: 6-736                    [-1, 64, 48, 48]          [-1, 64, 48, 48]          --                        --                        --
|    |    |    |    |    |    └─AdaptiveAvgPool2d: 7-367     [-1, 64, 48, 48]          [-1, 64, 1, 1]            --                        --                        --
|    |    |    |    |    |    └─Sequential: 7-368            [-1, 64, 1, 1]            [-1, 64, 1, 1]            --                        --                        --
|    |    |    |    |    |    |    └─Conv2d: 8-733           [-1, 64, 1, 1]            [-1, 4, 1, 1]             [64, 4, 1, 1]             260                       256
|    |    |    |    |    |    |    └─ReLU: 8-734             [-1, 4, 1, 1]             [-1, 4, 1, 1]             --                        --                        --
|    |    |    |    |    |    |    └─Conv2d: 8-735           [-1, 4, 1, 1]             [-1, 64, 1, 1]            [4, 64, 1, 1]             320                       256
|    |    |    |    |    |    |    └─Sigmoid: 8-736          [-1, 64, 1, 1]            [-1, 64, 1, 1]            --                        --                        --
|    |    |    └─RCAB: 4-194                                 [-1, 64, 48, 48]          [-1, 64, 48, 48]          --                        --                        --
|    |    |    |    └─Sequential: 5-185                      [-1, 64, 48, 48]          [-1, 64, 48, 48]          --                        --                        --
|    |    |    |    |    └─Conv2d: 6-737                     [-1, 64, 48, 48]          [-1, 64, 48, 48]          [64, 64, 3, 3]            36,928                    84,934,656
|    |    |    |    |    └─ReLU: 6-738                       [-1, 64, 48, 48]          [-1, 64, 48, 48]          --                        --                        --
|    |    |    |    |    └─Conv2d: 6-739                     [-1, 64, 48, 48]          [-1, 64, 48, 48]          [64, 64, 3, 3]            36,928                    84,934,656
|    |    |    |    |    └─CALayer: 6-740                    [-1, 64, 48, 48]          [-1, 64, 48, 48]          --                        --                        --
|    |    |    |    |    |    └─AdaptiveAvgPool2d: 7-369     [-1, 64, 48, 48]          [-1, 64, 1, 1]            --                        --                        --
|    |    |    |    |    |    └─Sequential: 7-370            [-1, 64, 1, 1]            [-1, 64, 1, 1]            --                        --                        --
|    |    |    |    |    |    |    └─Conv2d: 8-737           [-1, 64, 1, 1]            [-1, 4, 1, 1]             [64, 4, 1, 1]             260                       256
|    |    |    |    |    |    |    └─ReLU: 8-738             [-1, 4, 1, 1]             [-1, 4, 1, 1]             --                        --                        --
|    |    |    |    |    |    |    └─Conv2d: 8-739           [-1, 4, 1, 1]             [-1, 64, 1, 1]            [4, 64, 1, 1]             320                       256
|    |    |    |    |    |    |    └─Sigmoid: 8-740          [-1, 64, 1, 1]            [-1, 64, 1, 1]            --                        --                        --
|    |    |    └─RCAB: 4-195                                 [-1, 64, 48, 48]          [-1, 64, 48, 48]          --                        --                        --
|    |    |    |    └─Sequential: 5-186                      [-1, 64, 48, 48]          [-1, 64, 48, 48]          --                        --                        --
|    |    |    |    |    └─Conv2d: 6-741                     [-1, 64, 48, 48]          [-1, 64, 48, 48]          [64, 64, 3, 3]            36,928                    84,934,656
|    |    |    |    |    └─ReLU: 6-742                       [-1, 64, 48, 48]          [-1, 64, 48, 48]          --                        --                        --
|    |    |    |    |    └─Conv2d: 6-743                     [-1, 64, 48, 48]          [-1, 64, 48, 48]          [64, 64, 3, 3]            36,928                    84,934,656
|    |    |    |    |    └─CALayer: 6-744                    [-1, 64, 48, 48]          [-1, 64, 48, 48]          --                        --                        --
|    |    |    |    |    |    └─AdaptiveAvgPool2d: 7-371     [-1, 64, 48, 48]          [-1, 64, 1, 1]            --                        --                        --
|    |    |    |    |    |    └─Sequential: 7-372            [-1, 64, 1, 1]            [-1, 64, 1, 1]            --                        --                        --
|    |    |    |    |    |    |    └─Conv2d: 8-741           [-1, 64, 1, 1]            [-1, 4, 1, 1]             [64, 4, 1, 1]             260                       256
|    |    |    |    |    |    |    └─ReLU: 8-742             [-1, 4, 1, 1]             [-1, 4, 1, 1]             --                        --                        --
|    |    |    |    |    |    |    └─Conv2d: 8-743           [-1, 4, 1, 1]             [-1, 64, 1, 1]            [4, 64, 1, 1]             320                       256
|    |    |    |    |    |    |    └─Sigmoid: 8-744          [-1, 64, 1, 1]            [-1, 64, 1, 1]            --                        --                        --
|    |    |    └─RCAB: 4-196                                 [-1, 64, 48, 48]          [-1, 64, 48, 48]          --                        --                        --
|    |    |    |    └─Sequential: 5-187                      [-1, 64, 48, 48]          [-1, 64, 48, 48]          --                        --                        --
|    |    |    |    |    └─Conv2d: 6-745                     [-1, 64, 48, 48]          [-1, 64, 48, 48]          [64, 64, 3, 3]            36,928                    84,934,656
|    |    |    |    |    └─ReLU: 6-746                       [-1, 64, 48, 48]          [-1, 64, 48, 48]          --                        --                        --
|    |    |    |    |    └─Conv2d: 6-747                     [-1, 64, 48, 48]          [-1, 64, 48, 48]          [64, 64, 3, 3]            36,928                    84,934,656
|    |    |    |    |    └─CALayer: 6-748                    [-1, 64, 48, 48]          [-1, 64, 48, 48]          --                        --                        --
|    |    |    |    |    |    └─AdaptiveAvgPool2d: 7-373     [-1, 64, 48, 48]          [-1, 64, 1, 1]            --                        --                        --
|    |    |    |    |    |    └─Sequential: 7-374            [-1, 64, 1, 1]            [-1, 64, 1, 1]            --                        --                        --
|    |    |    |    |    |    |    └─Conv2d: 8-745           [-1, 64, 1, 1]            [-1, 4, 1, 1]             [64, 4, 1, 1]             260                       256
|    |    |    |    |    |    |    └─ReLU: 8-746             [-1, 4, 1, 1]             [-1, 4, 1, 1]             --                        --                        --
|    |    |    |    |    |    |    └─Conv2d: 8-747           [-1, 4, 1, 1]             [-1, 64, 1, 1]            [4, 64, 1, 1]             320                       256
|    |    |    |    |    |    |    └─Sigmoid: 8-748          [-1, 64, 1, 1]            [-1, 64, 1, 1]            --                        --                        --
|    |    |    └─RCAB: 4-197                                 [-1, 64, 48, 48]          [-1, 64, 48, 48]          --                        --                        --
|    |    |    |    └─Sequential: 5-188                      [-1, 64, 48, 48]          [-1, 64, 48, 48]          --                        --                        --
|    |    |    |    |    └─Conv2d: 6-749                     [-1, 64, 48, 48]          [-1, 64, 48, 48]          [64, 64, 3, 3]            36,928                    84,934,656
|    |    |    |    |    └─ReLU: 6-750                       [-1, 64, 48, 48]          [-1, 64, 48, 48]          --                        --                        --
|    |    |    |    |    └─Conv2d: 6-751                     [-1, 64, 48, 48]          [-1, 64, 48, 48]          [64, 64, 3, 3]            36,928                    84,934,656
|    |    |    |    |    └─CALayer: 6-752                    [-1, 64, 48, 48]          [-1, 64, 48, 48]          --                        --                        --
|    |    |    |    |    |    └─AdaptiveAvgPool2d: 7-375     [-1, 64, 48, 48]          [-1, 64, 1, 1]            --                        --                        --
|    |    |    |    |    |    └─Sequential: 7-376            [-1, 64, 1, 1]            [-1, 64, 1, 1]            --                        --                        --
|    |    |    |    |    |    |    └─Conv2d: 8-749           [-1, 64, 1, 1]            [-1, 4, 1, 1]             [64, 4, 1, 1]             260                       256
|    |    |    |    |    |    |    └─ReLU: 8-750             [-1, 4, 1, 1]             [-1, 4, 1, 1]             --                        --                        --
|    |    |    |    |    |    |    └─Conv2d: 8-751           [-1, 4, 1, 1]             [-1, 64, 1, 1]            [4, 64, 1, 1]             320                       256
|    |    |    |    |    |    |    └─Sigmoid: 8-752          [-1, 64, 1, 1]            [-1, 64, 1, 1]            --                        --                        --
|    |    |    └─RCAB: 4-198                                 [-1, 64, 48, 48]          [-1, 64, 48, 48]          --                        --                        --
|    |    |    |    └─Sequential: 5-189                      [-1, 64, 48, 48]          [-1, 64, 48, 48]          --                        --                        --
|    |    |    |    |    └─Conv2d: 6-753                     [-1, 64, 48, 48]          [-1, 64, 48, 48]          [64, 64, 3, 3]            36,928                    84,934,656
|    |    |    |    |    └─ReLU: 6-754                       [-1, 64, 48, 48]          [-1, 64, 48, 48]          --                        --                        --
|    |    |    |    |    └─Conv2d: 6-755                     [-1, 64, 48, 48]          [-1, 64, 48, 48]          [64, 64, 3, 3]            36,928                    84,934,656
|    |    |    |    |    └─CALayer: 6-756                    [-1, 64, 48, 48]          [-1, 64, 48, 48]          --                        --                        --
|    |    |    |    |    |    └─AdaptiveAvgPool2d: 7-377     [-1, 64, 48, 48]          [-1, 64, 1, 1]            --                        --                        --
|    |    |    |    |    |    └─Sequential: 7-378            [-1, 64, 1, 1]            [-1, 64, 1, 1]            --                        --                        --
|    |    |    |    |    |    |    └─Conv2d: 8-753           [-1, 64, 1, 1]            [-1, 4, 1, 1]             [64, 4, 1, 1]             260                       256
|    |    |    |    |    |    |    └─ReLU: 8-754             [-1, 4, 1, 1]             [-1, 4, 1, 1]             --                        --                        --
|    |    |    |    |    |    |    └─Conv2d: 8-755           [-1, 4, 1, 1]             [-1, 64, 1, 1]            [4, 64, 1, 1]             320                       256
|    |    |    |    |    |    |    └─Sigmoid: 8-756          [-1, 64, 1, 1]            [-1, 64, 1, 1]            --                        --                        --
|    |    |    └─RCAB: 4-199                                 [-1, 64, 48, 48]          [-1, 64, 48, 48]          --                        --                        --
|    |    |    |    └─Sequential: 5-190                      [-1, 64, 48, 48]          [-1, 64, 48, 48]          --                        --                        --
|    |    |    |    |    └─Conv2d: 6-757                     [-1, 64, 48, 48]          [-1, 64, 48, 48]          [64, 64, 3, 3]            36,928                    84,934,656
|    |    |    |    |    └─ReLU: 6-758                       [-1, 64, 48, 48]          [-1, 64, 48, 48]          --                        --                        --
|    |    |    |    |    └─Conv2d: 6-759                     [-1, 64, 48, 48]          [-1, 64, 48, 48]          [64, 64, 3, 3]            36,928                    84,934,656
|    |    |    |    |    └─CALayer: 6-760                    [-1, 64, 48, 48]          [-1, 64, 48, 48]          --                        --                        --
|    |    |    |    |    |    └─AdaptiveAvgPool2d: 7-379     [-1, 64, 48, 48]          [-1, 64, 1, 1]            --                        --                        --
|    |    |    |    |    |    └─Sequential: 7-380            [-1, 64, 1, 1]            [-1, 64, 1, 1]            --                        --                        --
|    |    |    |    |    |    |    └─Conv2d: 8-757           [-1, 64, 1, 1]            [-1, 4, 1, 1]             [64, 4, 1, 1]             260                       256
|    |    |    |    |    |    |    └─ReLU: 8-758             [-1, 4, 1, 1]             [-1, 4, 1, 1]             --                        --                        --
|    |    |    |    |    |    |    └─Conv2d: 8-759           [-1, 4, 1, 1]             [-1, 64, 1, 1]            [4, 64, 1, 1]             320                       256
|    |    |    |    |    |    |    └─Sigmoid: 8-760          [-1, 64, 1, 1]            [-1, 64, 1, 1]            --                        --                        --
|    |    |    └─RCAB: 4-200                                 [-1, 64, 48, 48]          [-1, 64, 48, 48]          --                        --                        --
|    |    |    |    └─Sequential: 5-191                      [-1, 64, 48, 48]          [-1, 64, 48, 48]          --                        --                        --
|    |    |    |    |    └─Conv2d: 6-761                     [-1, 64, 48, 48]          [-1, 64, 48, 48]          [64, 64, 3, 3]            36,928                    84,934,656
|    |    |    |    |    └─ReLU: 6-762                       [-1, 64, 48, 48]          [-1, 64, 48, 48]          --                        --                        --
|    |    |    |    |    └─Conv2d: 6-763                     [-1, 64, 48, 48]          [-1, 64, 48, 48]          [64, 64, 3, 3]            36,928                    84,934,656
|    |    |    |    |    └─CALayer: 6-764                    [-1, 64, 48, 48]          [-1, 64, 48, 48]          --                        --                        --
|    |    |    |    |    |    └─AdaptiveAvgPool2d: 7-381     [-1, 64, 48, 48]          [-1, 64, 1, 1]            --                        --                        --
|    |    |    |    |    |    └─Sequential: 7-382            [-1, 64, 1, 1]            [-1, 64, 1, 1]            --                        --                        --
|    |    |    |    |    |    |    └─Conv2d: 8-761           [-1, 64, 1, 1]            [-1, 4, 1, 1]             [64, 4, 1, 1]             260                       256
|    |    |    |    |    |    |    └─ReLU: 8-762             [-1, 4, 1, 1]             [-1, 4, 1, 1]             --                        --                        --
|    |    |    |    |    |    |    └─Conv2d: 8-763           [-1, 4, 1, 1]             [-1, 64, 1, 1]            [4, 64, 1, 1]             320                       256
|    |    |    |    |    |    |    └─Sigmoid: 8-764          [-1, 64, 1, 1]            [-1, 64, 1, 1]            --                        --                        --
|    |    |    └─RCAB: 4-201                                 [-1, 64, 48, 48]          [-1, 64, 48, 48]          --                        --                        --
|    |    |    |    └─Sequential: 5-192                      [-1, 64, 48, 48]          [-1, 64, 48, 48]          --                        --                        --
|    |    |    |    |    └─Conv2d: 6-765                     [-1, 64, 48, 48]          [-1, 64, 48, 48]          [64, 64, 3, 3]            36,928                    84,934,656
|    |    |    |    |    └─ReLU: 6-766                       [-1, 64, 48, 48]          [-1, 64, 48, 48]          --                        --                        --
|    |    |    |    |    └─Conv2d: 6-767                     [-1, 64, 48, 48]          [-1, 64, 48, 48]          [64, 64, 3, 3]            36,928                    84,934,656
|    |    |    |    |    └─CALayer: 6-768                    [-1, 64, 48, 48]          [-1, 64, 48, 48]          --                        --                        --
|    |    |    |    |    |    └─AdaptiveAvgPool2d: 7-383     [-1, 64, 48, 48]          [-1, 64, 1, 1]            --                        --                        --
|    |    |    |    |    |    └─Sequential: 7-384            [-1, 64, 1, 1]            [-1, 64, 1, 1]            --                        --                        --
|    |    |    |    |    |    |    └─Conv2d: 8-765           [-1, 64, 1, 1]            [-1, 4, 1, 1]             [64, 4, 1, 1]             260                       256
|    |    |    |    |    |    |    └─ReLU: 8-766             [-1, 4, 1, 1]             [-1, 4, 1, 1]             --                        --                        --
|    |    |    |    |    |    |    └─Conv2d: 8-767           [-1, 4, 1, 1]             [-1, 64, 1, 1]            [4, 64, 1, 1]             320                       256
|    |    |    |    |    |    |    └─Sigmoid: 8-768          [-1, 64, 1, 1]            [-1, 64, 1, 1]            --                        --                        --
|    |    |    └─RCAB: 4-202                                 [-1, 64, 48, 48]          [-1, 64, 48, 48]          --                        --                        --
|    |    |    |    └─Sequential: 5-193                      [-1, 64, 48, 48]          [-1, 64, 48, 48]          --                        --                        --
|    |    |    |    |    └─Conv2d: 6-769                     [-1, 64, 48, 48]          [-1, 64, 48, 48]          [64, 64, 3, 3]            36,928                    84,934,656
|    |    |    |    |    └─ReLU: 6-770                       [-1, 64, 48, 48]          [-1, 64, 48, 48]          --                        --                        --
|    |    |    |    |    └─Conv2d: 6-771                     [-1, 64, 48, 48]          [-1, 64, 48, 48]          [64, 64, 3, 3]            36,928                    84,934,656
|    |    |    |    |    └─CALayer: 6-772                    [-1, 64, 48, 48]          [-1, 64, 48, 48]          --                        --                        --
|    |    |    |    |    |    └─AdaptiveAvgPool2d: 7-385     [-1, 64, 48, 48]          [-1, 64, 1, 1]            --                        --                        --
|    |    |    |    |    |    └─Sequential: 7-386            [-1, 64, 1, 1]            [-1, 64, 1, 1]            --                        --                        --
|    |    |    |    |    |    |    └─Conv2d: 8-769           [-1, 64, 1, 1]            [-1, 4, 1, 1]             [64, 4, 1, 1]             260                       256
|    |    |    |    |    |    |    └─ReLU: 8-770             [-1, 4, 1, 1]             [-1, 4, 1, 1]             --                        --                        --
|    |    |    |    |    |    |    └─Conv2d: 8-771           [-1, 4, 1, 1]             [-1, 64, 1, 1]            [4, 64, 1, 1]             320                       256
|    |    |    |    |    |    |    └─Sigmoid: 8-772          [-1, 64, 1, 1]            [-1, 64, 1, 1]            --                        --                        --
|    |    |    └─RCAB: 4-203                                 [-1, 64, 48, 48]          [-1, 64, 48, 48]          --                        --                        --
|    |    |    |    └─Sequential: 5-194                      [-1, 64, 48, 48]          [-1, 64, 48, 48]          --                        --                        --
|    |    |    |    |    └─Conv2d: 6-773                     [-1, 64, 48, 48]          [-1, 64, 48, 48]          [64, 64, 3, 3]            36,928                    84,934,656
|    |    |    |    |    └─ReLU: 6-774                       [-1, 64, 48, 48]          [-1, 64, 48, 48]          --                        --                        --
|    |    |    |    |    └─Conv2d: 6-775                     [-1, 64, 48, 48]          [-1, 64, 48, 48]          [64, 64, 3, 3]            36,928                    84,934,656
|    |    |    |    |    └─CALayer: 6-776                    [-1, 64, 48, 48]          [-1, 64, 48, 48]          --                        --                        --
|    |    |    |    |    |    └─AdaptiveAvgPool2d: 7-387     [-1, 64, 48, 48]          [-1, 64, 1, 1]            --                        --                        --
|    |    |    |    |    |    └─Sequential: 7-388            [-1, 64, 1, 1]            [-1, 64, 1, 1]            --                        --                        --
|    |    |    |    |    |    |    └─Conv2d: 8-773           [-1, 64, 1, 1]            [-1, 4, 1, 1]             [64, 4, 1, 1]             260                       256
|    |    |    |    |    |    |    └─ReLU: 8-774             [-1, 4, 1, 1]             [-1, 4, 1, 1]             --                        --                        --
|    |    |    |    |    |    |    └─Conv2d: 8-775           [-1, 4, 1, 1]             [-1, 64, 1, 1]            [4, 64, 1, 1]             320                       256
|    |    |    |    |    |    |    └─Sigmoid: 8-776          [-1, 64, 1, 1]            [-1, 64, 1, 1]            --                        --                        --
|    |    |    └─RCAB: 4-204                                 [-1, 64, 48, 48]          [-1, 64, 48, 48]          --                        --                        --
|    |    |    |    └─Sequential: 5-195                      [-1, 64, 48, 48]          [-1, 64, 48, 48]          --                        --                        --
|    |    |    |    |    └─Conv2d: 6-777                     [-1, 64, 48, 48]          [-1, 64, 48, 48]          [64, 64, 3, 3]            36,928                    84,934,656
|    |    |    |    |    └─ReLU: 6-778                       [-1, 64, 48, 48]          [-1, 64, 48, 48]          --                        --                        --
|    |    |    |    |    └─Conv2d: 6-779                     [-1, 64, 48, 48]          [-1, 64, 48, 48]          [64, 64, 3, 3]            36,928                    84,934,656
|    |    |    |    |    └─CALayer: 6-780                    [-1, 64, 48, 48]          [-1, 64, 48, 48]          --                        --                        --
|    |    |    |    |    |    └─AdaptiveAvgPool2d: 7-389     [-1, 64, 48, 48]          [-1, 64, 1, 1]            --                        --                        --
|    |    |    |    |    |    └─Sequential: 7-390            [-1, 64, 1, 1]            [-1, 64, 1, 1]            --                        --                        --
|    |    |    |    |    |    |    └─Conv2d: 8-777           [-1, 64, 1, 1]            [-1, 4, 1, 1]             [64, 4, 1, 1]             260                       256
|    |    |    |    |    |    |    └─ReLU: 8-778             [-1, 4, 1, 1]             [-1, 4, 1, 1]             --                        --                        --
|    |    |    |    |    |    |    └─Conv2d: 8-779           [-1, 4, 1, 1]             [-1, 64, 1, 1]            [4, 64, 1, 1]             320                       256
|    |    |    |    |    |    |    └─Sigmoid: 8-780          [-1, 64, 1, 1]            [-1, 64, 1, 1]            --                        --                        --
|    |    |    └─RCAB: 4-205                                 [-1, 64, 48, 48]          [-1, 64, 48, 48]          --                        --                        --
|    |    |    |    └─Sequential: 5-196                      [-1, 64, 48, 48]          [-1, 64, 48, 48]          --                        --                        --
|    |    |    |    |    └─Conv2d: 6-781                     [-1, 64, 48, 48]          [-1, 64, 48, 48]          [64, 64, 3, 3]            36,928                    84,934,656
|    |    |    |    |    └─ReLU: 6-782                       [-1, 64, 48, 48]          [-1, 64, 48, 48]          --                        --                        --
|    |    |    |    |    └─Conv2d: 6-783                     [-1, 64, 48, 48]          [-1, 64, 48, 48]          [64, 64, 3, 3]            36,928                    84,934,656
|    |    |    |    |    └─CALayer: 6-784                    [-1, 64, 48, 48]          [-1, 64, 48, 48]          --                        --                        --
|    |    |    |    |    |    └─AdaptiveAvgPool2d: 7-391     [-1, 64, 48, 48]          [-1, 64, 1, 1]            --                        --                        --
|    |    |    |    |    |    └─Sequential: 7-392            [-1, 64, 1, 1]            [-1, 64, 1, 1]            --                        --                        --
|    |    |    |    |    |    |    └─Conv2d: 8-781           [-1, 64, 1, 1]            [-1, 4, 1, 1]             [64, 4, 1, 1]             260                       256
|    |    |    |    |    |    |    └─ReLU: 8-782             [-1, 4, 1, 1]             [-1, 4, 1, 1]             --                        --                        --
|    |    |    |    |    |    |    └─Conv2d: 8-783           [-1, 4, 1, 1]             [-1, 64, 1, 1]            [4, 64, 1, 1]             320                       256
|    |    |    |    |    |    |    └─Sigmoid: 8-784          [-1, 64, 1, 1]            [-1, 64, 1, 1]            --                        --                        --
|    |    |    └─RCAB: 4-206                                 [-1, 64, 48, 48]          [-1, 64, 48, 48]          --                        --                        --
|    |    |    |    └─Sequential: 5-197                      [-1, 64, 48, 48]          [-1, 64, 48, 48]          --                        --                        --
|    |    |    |    |    └─Conv2d: 6-785                     [-1, 64, 48, 48]          [-1, 64, 48, 48]          [64, 64, 3, 3]            36,928                    84,934,656
|    |    |    |    |    └─ReLU: 6-786                       [-1, 64, 48, 48]          [-1, 64, 48, 48]          --                        --                        --
|    |    |    |    |    └─Conv2d: 6-787                     [-1, 64, 48, 48]          [-1, 64, 48, 48]          [64, 64, 3, 3]            36,928                    84,934,656
|    |    |    |    |    └─CALayer: 6-788                    [-1, 64, 48, 48]          [-1, 64, 48, 48]          --                        --                        --
|    |    |    |    |    |    └─AdaptiveAvgPool2d: 7-393     [-1, 64, 48, 48]          [-1, 64, 1, 1]            --                        --                        --
|    |    |    |    |    |    └─Sequential: 7-394            [-1, 64, 1, 1]            [-1, 64, 1, 1]            --                        --                        --
|    |    |    |    |    |    |    └─Conv2d: 8-785           [-1, 64, 1, 1]            [-1, 4, 1, 1]             [64, 4, 1, 1]             260                       256
|    |    |    |    |    |    |    └─ReLU: 8-786             [-1, 4, 1, 1]             [-1, 4, 1, 1]             --                        --                        --
|    |    |    |    |    |    |    └─Conv2d: 8-787           [-1, 4, 1, 1]             [-1, 64, 1, 1]            [4, 64, 1, 1]             320                       256
|    |    |    |    |    |    |    └─Sigmoid: 8-788          [-1, 64, 1, 1]            [-1, 64, 1, 1]            --                        --                        --
|    |    |    └─RCAB: 4-207                                 [-1, 64, 48, 48]          [-1, 64, 48, 48]          --                        --                        --
|    |    |    |    └─Sequential: 5-198                      [-1, 64, 48, 48]          [-1, 64, 48, 48]          --                        --                        --
|    |    |    |    |    └─Conv2d: 6-789                     [-1, 64, 48, 48]          [-1, 64, 48, 48]          [64, 64, 3, 3]            36,928                    84,934,656
|    |    |    |    |    └─ReLU: 6-790                       [-1, 64, 48, 48]          [-1, 64, 48, 48]          --                        --                        --
|    |    |    |    |    └─Conv2d: 6-791                     [-1, 64, 48, 48]          [-1, 64, 48, 48]          [64, 64, 3, 3]            36,928                    84,934,656
|    |    |    |    |    └─CALayer: 6-792                    [-1, 64, 48, 48]          [-1, 64, 48, 48]          --                        --                        --
|    |    |    |    |    |    └─AdaptiveAvgPool2d: 7-395     [-1, 64, 48, 48]          [-1, 64, 1, 1]            --                        --                        --
|    |    |    |    |    |    └─Sequential: 7-396            [-1, 64, 1, 1]            [-1, 64, 1, 1]            --                        --                        --
|    |    |    |    |    |    |    └─Conv2d: 8-789           [-1, 64, 1, 1]            [-1, 4, 1, 1]             [64, 4, 1, 1]             260                       256
|    |    |    |    |    |    |    └─ReLU: 8-790             [-1, 4, 1, 1]             [-1, 4, 1, 1]             --                        --                        --
|    |    |    |    |    |    |    └─Conv2d: 8-791           [-1, 4, 1, 1]             [-1, 64, 1, 1]            [4, 64, 1, 1]             320                       256
|    |    |    |    |    |    |    └─Sigmoid: 8-792          [-1, 64, 1, 1]            [-1, 64, 1, 1]            --                        --                        --
|    |    |    └─RCAB: 4-208                                 [-1, 64, 48, 48]          [-1, 64, 48, 48]          --                        --                        --
|    |    |    |    └─Sequential: 5-199                      [-1, 64, 48, 48]          [-1, 64, 48, 48]          --                        --                        --
|    |    |    |    |    └─Conv2d: 6-793                     [-1, 64, 48, 48]          [-1, 64, 48, 48]          [64, 64, 3, 3]            36,928                    84,934,656
|    |    |    |    |    └─ReLU: 6-794                       [-1, 64, 48, 48]          [-1, 64, 48, 48]          --                        --                        --
|    |    |    |    |    └─Conv2d: 6-795                     [-1, 64, 48, 48]          [-1, 64, 48, 48]          [64, 64, 3, 3]            36,928                    84,934,656
|    |    |    |    |    └─CALayer: 6-796                    [-1, 64, 48, 48]          [-1, 64, 48, 48]          --                        --                        --
|    |    |    |    |    |    └─AdaptiveAvgPool2d: 7-397     [-1, 64, 48, 48]          [-1, 64, 1, 1]            --                        --                        --
|    |    |    |    |    |    └─Sequential: 7-398            [-1, 64, 1, 1]            [-1, 64, 1, 1]            --                        --                        --
|    |    |    |    |    |    |    └─Conv2d: 8-793           [-1, 64, 1, 1]            [-1, 4, 1, 1]             [64, 4, 1, 1]             260                       256
|    |    |    |    |    |    |    └─ReLU: 8-794             [-1, 4, 1, 1]             [-1, 4, 1, 1]             --                        --                        --
|    |    |    |    |    |    |    └─Conv2d: 8-795           [-1, 4, 1, 1]             [-1, 64, 1, 1]            [4, 64, 1, 1]             320                       256
|    |    |    |    |    |    |    └─Sigmoid: 8-796          [-1, 64, 1, 1]            [-1, 64, 1, 1]            --                        --                        --
|    |    |    └─RCAB: 4-209                                 [-1, 64, 48, 48]          [-1, 64, 48, 48]          --                        --                        --
|    |    |    |    └─Sequential: 5-200                      [-1, 64, 48, 48]          [-1, 64, 48, 48]          --                        --                        --
|    |    |    |    |    └─Conv2d: 6-797                     [-1, 64, 48, 48]          [-1, 64, 48, 48]          [64, 64, 3, 3]            36,928                    84,934,656
|    |    |    |    |    └─ReLU: 6-798                       [-1, 64, 48, 48]          [-1, 64, 48, 48]          --                        --                        --
|    |    |    |    |    └─Conv2d: 6-799                     [-1, 64, 48, 48]          [-1, 64, 48, 48]          [64, 64, 3, 3]            36,928                    84,934,656
|    |    |    |    |    └─CALayer: 6-800                    [-1, 64, 48, 48]          [-1, 64, 48, 48]          --                        --                        --
|    |    |    |    |    |    └─AdaptiveAvgPool2d: 7-399     [-1, 64, 48, 48]          [-1, 64, 1, 1]            --                        --                        --
|    |    |    |    |    |    └─Sequential: 7-400            [-1, 64, 1, 1]            [-1, 64, 1, 1]            --                        --                        --
|    |    |    |    |    |    |    └─Conv2d: 8-797           [-1, 64, 1, 1]            [-1, 4, 1, 1]             [64, 4, 1, 1]             260                       256
|    |    |    |    |    |    |    └─ReLU: 8-798             [-1, 4, 1, 1]             [-1, 4, 1, 1]             --                        --                        --
|    |    |    |    |    |    |    └─Conv2d: 8-799           [-1, 4, 1, 1]             [-1, 64, 1, 1]            [4, 64, 1, 1]             320                       256
|    |    |    |    |    |    |    └─Sigmoid: 8-800          [-1, 64, 1, 1]            [-1, 64, 1, 1]            --                        --                        --
|    |    |    └─Conv2d: 4-210                               [-1, 64, 48, 48]          [-1, 64, 48, 48]          [64, 64, 3, 3]            36,928                    84,934,656
|    └─Conv2d: 2-12                                          [-1, 64, 48, 48]          [-1, 64, 48, 48]          [64, 64, 3, 3]            36,928                    84,934,656
├─LAM_Module: 1-3                                            [-1, 10, 64, 48, 48]      [-1, 640, 48, 48]         --                        --                        --
|    └─Conv2d: 2-13                                          [-1, 640, 48, 48]         [-1, 640, 48, 48]         [640, 640, 1, 1]          410,240                   943,718,400
├─Conv2d: 1-4                                                [-1, 640, 48, 48]         [-1, 64, 48, 48]          [640, 64, 1, 1]           41,024                    94,371,840
├─Conv2d: 1-5                                                [-1, 128, 48, 48]         [-1, 64, 48, 48]          [128, 64, 1, 1]           8,256                     18,874,368
├─Sequential: 1-6                                            [-1, 64, 48, 48]          [-1, 3, 96, 96]           --                        --                        --
|    └─Upsampler: 2-14                                       [-1, 64, 48, 48]          [-1, 64, 96, 96]          --                        --                        --
|    |    └─Conv2d: 3-11                                     [-1, 64, 48, 48]          [-1, 256, 48, 48]         [64, 256, 3, 3]           147,712                   339,738,624
|    |    └─PixelShuffle: 3-12                               [-1, 256, 48, 48]         [-1, 64, 96, 96]          --                        --                        --
|    └─Conv2d: 2-15                                          [-1, 64, 96, 96]          [-1, 3, 96, 96]           [64, 3, 3, 3]             1,731                     15,925,248
├─MeanShift: 1-7                                             [-1, 3, 96, 96]           [-1, 3, 96, 96]           [3, 3, 1, 1]              12                        9
=========================================================================================================================================================================================
Total params: 15,904,187
Trainable params: 15,904,187
Non-trainable params: 0
Total mult-adds (G): 36.39
=========================================================================================================================================================================================
…
